{"format": "layers-model", "generatedBy": "keras v3.4.1", "convertedBy": "TensorFlow.js Converter v4.20.0", "modelTopology": {"keras_version": "3.4.1", "model_config": {"class_name": "Model", "config": {"name": "efficientnetv2-b0", "trainable": true, "layers": [{"class_name": "InputLayer", "config": {"batch_shape": [null, 128, 128, 3], "dtype": "float32", "sparse": false, "name": "input_layer"}, "name": "input_layer", "inbound_nodes": []}, {"class_name": "Rescaling", "config": {"name": "rescaling", "trainable": true, "dtype": {"class_name": "DTypePolicy", "config": {"name": "float32"}}, "scale": 0.00392156862745098, "offset": 0.0}, "build_config": {"input_shape": [null, 128, 128, 3]}, "name": "rescaling", "inbound_nodes": [{"args": [{"class_name": "__keras_tensor__", "config": {"shape": [null, 128, 128, 3], "dtype": "float32", "keras_history": ["input_layer", 0, 0]}}], "kwargs": {}}]}, {"class_name": "Normalization", "config": {"name": "normalization", "trainable": true, "dtype": {"class_name": "DTypePolicy", "config": {"name": "float32"}, "shared_object_id": 132965955152160}, "axis": [3], "invert": false, "mean": [0.485, 0.456, 0.406], "variance": [0.052441, 0.050176000000000005, 0.050625]}, "build_config": {"input_shape": [null, 128, 128, 3]}, "name": "normalization", "inbound_nodes": [{"args": [{"class_name": "__keras_tensor__", "config": {"shape": [null, 128, 128, 3], "dtype": "float32", "keras_history": ["rescaling", 0, 0]}}], "kwargs": {}}]}, {"class_name": "Conv2D", "config": {"name": "stem_conv", "trainable": true, "dtype": {"class_name": "DTypePolicy", "config": {"name": "float32"}, "shared_object_id": 132965955152160}, "filters": 32, "kernel_size": [3, 3], "strides": [2, 2], "padding": "same", "data_format": "channels_last", "dilation_rate": [1, 1], "groups": 1, "activation": "linear", "use_bias": false, "kernel_initializer": {"class_name": "VarianceScaling", "config": {"scale": 2.0, "mode": "fan_out", "distribution": "truncated_normal", "seed": null}}, "bias_initializer": {"class_name": "Zeros", "config": {}}, "kernel_regularizer": null, "bias_regularizer": null, "activity_regularizer": null, "kernel_constraint": null, "bias_constraint": null}, "build_config": {"input_shape": [null, 128, 128, 3]}, "name": "stem_conv", "inbound_nodes": [{"args": [{"class_name": "__keras_tensor__", "config": {"shape": [null, 128, 128, 3], "dtype": "float32", "keras_history": ["normalization", 0, 0]}}], "kwargs": {}}]}, {"class_name": "BatchNormalization", "config": {"name": "stem_bn", "trainable": true, "dtype": {"class_name": "DTypePolicy", "config": {"name": "float32"}, "shared_object_id": 132965955152160}, "axis": 3, "momentum": 0.9, "epsilon": 0.001, "center": true, "scale": true, "beta_initializer": {"class_name": "Zeros", "config": {}}, "gamma_initializer": {"class_name": "Ones", "config": {}}, "moving_mean_initializer": {"class_name": "Zeros", "config": {}}, "moving_variance_initializer": {"class_name": "Ones", "config": {}}, "beta_regularizer": null, "gamma_regularizer": null, "beta_constraint": null, "gamma_constraint": null, "synchronized": false}, "build_config": {"input_shape": [null, 64, 64, 32]}, "name": "stem_bn", "inbound_nodes": [{"args": [{"class_name": "__keras_tensor__", "config": {"shape": [null, 64, 64, 32], "dtype": "float32", "keras_history": ["stem_conv", 0, 0]}}], "kwargs": {"mask": null}}]}, {"class_name": "Activation", "config": {"name": "stem_activation", "trainable": true, "dtype": {"class_name": "DTypePolicy", "config": {"name": "float32"}, "shared_object_id": 132965955152160}, "activation": "silu"}, "build_config": {"input_shape": [null, 64, 64, 32]}, "name": "stem_activation", "inbound_nodes": [{"args": [{"class_name": "__keras_tensor__", "config": {"shape": [null, 64, 64, 32], "dtype": "float32", "keras_history": ["stem_bn", 0, 0]}}], "kwargs": {}}]}, {"class_name": "Conv2D", "config": {"name": "block1a_project_conv", "trainable": true, "dtype": {"class_name": "DTypePolicy", "config": {"name": "float32"}, "shared_object_id": 132965955152160}, "filters": 16, "kernel_size": [3, 3], "strides": [1, 1], "padding": "same", "data_format": "channels_last", "dilation_rate": [1, 1], "groups": 1, "activation": "linear", "use_bias": false, "kernel_initializer": {"class_name": "VarianceScaling", "config": {"scale": 2.0, "mode": "fan_out", "distribution": "truncated_normal", "seed": null}}, "bias_initializer": {"class_name": "Zeros", "config": {}}, "kernel_regularizer": null, "bias_regularizer": null, "activity_regularizer": null, "kernel_constraint": null, "bias_constraint": null}, "build_config": {"input_shape": [null, 64, 64, 32]}, "name": "block1a_project_conv", "inbound_nodes": [{"args": [{"class_name": "__keras_tensor__", "config": {"shape": [null, 64, 64, 32], "dtype": "float32", "keras_history": ["stem_activation", 0, 0]}}], "kwargs": {}}]}, {"class_name": "BatchNormalization", "config": {"name": "block1a_project_bn", "trainable": true, "dtype": {"class_name": "DTypePolicy", "config": {"name": "float32"}, "shared_object_id": 132965955152160}, "axis": 3, "momentum": 0.9, "epsilon": 0.001, "center": true, "scale": true, "beta_initializer": {"class_name": "Zeros", "config": {}}, "gamma_initializer": {"class_name": "Ones", "config": {}}, "moving_mean_initializer": {"class_name": "Zeros", "config": {}}, "moving_variance_initializer": {"class_name": "Ones", "config": {}}, "beta_regularizer": null, "gamma_regularizer": null, "beta_constraint": null, "gamma_constraint": null, "synchronized": false}, "build_config": {"input_shape": [null, 64, 64, 16]}, "name": "block1a_project_bn", "inbound_nodes": [{"args": [{"class_name": "__keras_tensor__", "config": {"shape": [null, 64, 64, 16], "dtype": "float32", "keras_history": ["block1a_project_conv", 0, 0]}}], "kwargs": {"mask": null}}]}, {"class_name": "Activation", "config": {"name": "block1a_project_activation", "trainable": true, "dtype": {"class_name": "DTypePolicy", "config": {"name": "float32"}, "shared_object_id": 132965955152160}, "activation": "silu"}, "build_config": {"input_shape": [null, 64, 64, 16]}, "name": "block1a_project_activation", "inbound_nodes": [{"args": [{"class_name": "__keras_tensor__", "config": {"shape": [null, 64, 64, 16], "dtype": "float32", "keras_history": ["block1a_project_bn", 0, 0]}}], "kwargs": {}}]}, {"class_name": "Conv2D", "config": {"name": "block2a_expand_conv", "trainable": true, "dtype": {"class_name": "DTypePolicy", "config": {"name": "float32"}, "shared_object_id": 132965955152160}, "filters": 64, "kernel_size": [3, 3], "strides": [2, 2], "padding": "same", "data_format": "channels_last", "dilation_rate": [1, 1], "groups": 1, "activation": "linear", "use_bias": false, "kernel_initializer": {"class_name": "VarianceScaling", "config": {"scale": 2.0, "mode": "fan_out", "distribution": "truncated_normal", "seed": null}}, "bias_initializer": {"class_name": "Zeros", "config": {}}, "kernel_regularizer": null, "bias_regularizer": null, "activity_regularizer": null, "kernel_constraint": null, "bias_constraint": null}, "build_config": {"input_shape": [null, 64, 64, 16]}, "name": "block2a_expand_conv", "inbound_nodes": [{"args": [{"class_name": "__keras_tensor__", "config": {"shape": [null, 64, 64, 16], "dtype": "float32", "keras_history": ["block1a_project_activation", 0, 0]}}], "kwargs": {}}]}, {"class_name": "BatchNormalization", "config": {"name": "block2a_expand_bn", "trainable": true, "dtype": {"class_name": "DTypePolicy", "config": {"name": "float32"}, "shared_object_id": 132965955152160}, "axis": 3, "momentum": 0.9, "epsilon": 0.001, "center": true, "scale": true, "beta_initializer": {"class_name": "Zeros", "config": {}}, "gamma_initializer": {"class_name": "Ones", "config": {}}, "moving_mean_initializer": {"class_name": "Zeros", "config": {}}, "moving_variance_initializer": {"class_name": "Ones", "config": {}}, "beta_regularizer": null, "gamma_regularizer": null, "beta_constraint": null, "gamma_constraint": null, "synchronized": false}, "build_config": {"input_shape": [null, 32, 32, 64]}, "name": "block2a_expand_bn", "inbound_nodes": [{"args": [{"class_name": "__keras_tensor__", "config": {"shape": [null, 32, 32, 64], "dtype": "float32", "keras_history": ["block2a_expand_conv", 0, 0]}}], "kwargs": {"mask": null}}]}, {"class_name": "Activation", "config": {"name": "block2a_expand_activation", "trainable": true, "dtype": {"class_name": "DTypePolicy", "config": {"name": "float32"}, "shared_object_id": 132965955152160}, "activation": "silu"}, "build_config": {"input_shape": [null, 32, 32, 64]}, "name": "block2a_expand_activation", "inbound_nodes": [{"args": [{"class_name": "__keras_tensor__", "config": {"shape": [null, 32, 32, 64], "dtype": "float32", "keras_history": ["block2a_expand_bn", 0, 0]}}], "kwargs": {}}]}, {"class_name": "Conv2D", "config": {"name": "block2a_project_conv", "trainable": true, "dtype": {"class_name": "DTypePolicy", "config": {"name": "float32"}, "shared_object_id": 132965955152160}, "filters": 32, "kernel_size": [1, 1], "strides": [1, 1], "padding": "same", "data_format": "channels_last", "dilation_rate": [1, 1], "groups": 1, "activation": "linear", "use_bias": false, "kernel_initializer": {"class_name": "VarianceScaling", "config": {"scale": 2.0, "mode": "fan_out", "distribution": "truncated_normal", "seed": null}}, "bias_initializer": {"class_name": "Zeros", "config": {}}, "kernel_regularizer": null, "bias_regularizer": null, "activity_regularizer": null, "kernel_constraint": null, "bias_constraint": null}, "build_config": {"input_shape": [null, 32, 32, 64]}, "name": "block2a_project_conv", "inbound_nodes": [{"args": [{"class_name": "__keras_tensor__", "config": {"shape": [null, 32, 32, 64], "dtype": "float32", "keras_history": ["block2a_expand_activation", 0, 0]}}], "kwargs": {}}]}, {"class_name": "BatchNormalization", "config": {"name": "block2a_project_bn", "trainable": true, "dtype": {"class_name": "DTypePolicy", "config": {"name": "float32"}, "shared_object_id": 132965955152160}, "axis": 3, "momentum": 0.9, "epsilon": 0.001, "center": true, "scale": true, "beta_initializer": {"class_name": "Zeros", "config": {}}, "gamma_initializer": {"class_name": "Ones", "config": {}}, "moving_mean_initializer": {"class_name": "Zeros", "config": {}}, "moving_variance_initializer": {"class_name": "Ones", "config": {}}, "beta_regularizer": null, "gamma_regularizer": null, "beta_constraint": null, "gamma_constraint": null, "synchronized": false}, "build_config": {"input_shape": [null, 32, 32, 32]}, "name": "block2a_project_bn", "inbound_nodes": [{"args": [{"class_name": "__keras_tensor__", "config": {"shape": [null, 32, 32, 32], "dtype": "float32", "keras_history": ["block2a_project_conv", 0, 0]}}], "kwargs": {"mask": null}}]}, {"class_name": "Conv2D", "config": {"name": "block2b_expand_conv", "trainable": true, "dtype": {"class_name": "DTypePolicy", "config": {"name": "float32"}, "shared_object_id": 132965955152160}, "filters": 128, "kernel_size": [3, 3], "strides": [1, 1], "padding": "same", "data_format": "channels_last", "dilation_rate": [1, 1], "groups": 1, "activation": "linear", "use_bias": false, "kernel_initializer": {"class_name": "VarianceScaling", "config": {"scale": 2.0, "mode": "fan_out", "distribution": "truncated_normal", "seed": null}}, "bias_initializer": {"class_name": "Zeros", "config": {}}, "kernel_regularizer": null, "bias_regularizer": null, "activity_regularizer": null, "kernel_constraint": null, "bias_constraint": null}, "build_config": {"input_shape": [null, 32, 32, 32]}, "name": "block2b_expand_conv", "inbound_nodes": [{"args": [{"class_name": "__keras_tensor__", "config": {"shape": [null, 32, 32, 32], "dtype": "float32", "keras_history": ["block2a_project_bn", 0, 0]}}], "kwargs": {}}]}, {"class_name": "BatchNormalization", "config": {"name": "block2b_expand_bn", "trainable": true, "dtype": {"class_name": "DTypePolicy", "config": {"name": "float32"}, "shared_object_id": 132965955152160}, "axis": 3, "momentum": 0.9, "epsilon": 0.001, "center": true, "scale": true, "beta_initializer": {"class_name": "Zeros", "config": {}}, "gamma_initializer": {"class_name": "Ones", "config": {}}, "moving_mean_initializer": {"class_name": "Zeros", "config": {}}, "moving_variance_initializer": {"class_name": "Ones", "config": {}}, "beta_regularizer": null, "gamma_regularizer": null, "beta_constraint": null, "gamma_constraint": null, "synchronized": false}, "build_config": {"input_shape": [null, 32, 32, 128]}, "name": "block2b_expand_bn", "inbound_nodes": [{"args": [{"class_name": "__keras_tensor__", "config": {"shape": [null, 32, 32, 128], "dtype": "float32", "keras_history": ["block2b_expand_conv", 0, 0]}}], "kwargs": {"mask": null}}]}, {"class_name": "Activation", "config": {"name": "block2b_expand_activation", "trainable": true, "dtype": {"class_name": "DTypePolicy", "config": {"name": "float32"}, "shared_object_id": 132965955152160}, "activation": "silu"}, "build_config": {"input_shape": [null, 32, 32, 128]}, "name": "block2b_expand_activation", "inbound_nodes": [{"args": [{"class_name": "__keras_tensor__", "config": {"shape": [null, 32, 32, 128], "dtype": "float32", "keras_history": ["block2b_expand_bn", 0, 0]}}], "kwargs": {}}]}, {"class_name": "Conv2D", "config": {"name": "block2b_project_conv", "trainable": true, "dtype": {"class_name": "DTypePolicy", "config": {"name": "float32"}, "shared_object_id": 132965955152160}, "filters": 32, "kernel_size": [1, 1], "strides": [1, 1], "padding": "same", "data_format": "channels_last", "dilation_rate": [1, 1], "groups": 1, "activation": "linear", "use_bias": false, "kernel_initializer": {"class_name": "VarianceScaling", "config": {"scale": 2.0, "mode": "fan_out", "distribution": "truncated_normal", "seed": null}}, "bias_initializer": {"class_name": "Zeros", "config": {}}, "kernel_regularizer": null, "bias_regularizer": null, "activity_regularizer": null, "kernel_constraint": null, "bias_constraint": null}, "build_config": {"input_shape": [null, 32, 32, 128]}, "name": "block2b_project_conv", "inbound_nodes": [{"args": [{"class_name": "__keras_tensor__", "config": {"shape": [null, 32, 32, 128], "dtype": "float32", "keras_history": ["block2b_expand_activation", 0, 0]}}], "kwargs": {}}]}, {"class_name": "BatchNormalization", "config": {"name": "block2b_project_bn", "trainable": true, "dtype": {"class_name": "DTypePolicy", "config": {"name": "float32"}, "shared_object_id": 132965955152160}, "axis": 3, "momentum": 0.9, "epsilon": 0.001, "center": true, "scale": true, "beta_initializer": {"class_name": "Zeros", "config": {}}, "gamma_initializer": {"class_name": "Ones", "config": {}}, "moving_mean_initializer": {"class_name": "Zeros", "config": {}}, "moving_variance_initializer": {"class_name": "Ones", "config": {}}, "beta_regularizer": null, "gamma_regularizer": null, "beta_constraint": null, "gamma_constraint": null, "synchronized": false}, "build_config": {"input_shape": [null, 32, 32, 32]}, "name": "block2b_project_bn", "inbound_nodes": [{"args": [{"class_name": "__keras_tensor__", "config": {"shape": [null, 32, 32, 32], "dtype": "float32", "keras_history": ["block2b_project_conv", 0, 0]}}], "kwargs": {"mask": null}}]}, {"class_name": "Dropout", "config": {"name": "block2b_drop", "trainable": true, "dtype": {"class_name": "DTypePolicy", "config": {"name": "float32"}, "shared_object_id": 132965955152160}, "rate": 0.01904761904761905, "seed": null, "noise_shape": [null, 1, 1, 1]}, "build_config": {"input_shape": [null, 32, 32, 32]}, "name": "block2b_drop", "inbound_nodes": [{"args": [{"class_name": "__keras_tensor__", "config": {"shape": [null, 32, 32, 32], "dtype": "float32", "keras_history": ["block2b_project_bn", 0, 0]}}], "kwargs": {"training": false}}]}, {"class_name": "Add", "config": {"name": "block2b_add", "trainable": true, "dtype": {"class_name": "DTypePolicy", "config": {"name": "float32"}, "shared_object_id": 132965955152160}}, "build_config": {"input_shape": [[null, 32, 32, 32], [null, 32, 32, 32]]}, "name": "block2b_add", "inbound_nodes": [{"args": [[{"class_name": "__keras_tensor__", "config": {"shape": [null, 32, 32, 32], "dtype": "float32", "keras_history": ["block2b_drop", 0, 0]}}, {"class_name": "__keras_tensor__", "config": {"shape": [null, 32, 32, 32], "dtype": "float32", "keras_history": ["block2a_project_bn", 0, 0]}}]], "kwargs": {}}]}, {"class_name": "Conv2D", "config": {"name": "block3a_expand_conv", "trainable": true, "dtype": {"class_name": "DTypePolicy", "config": {"name": "float32"}, "shared_object_id": 132965955152160}, "filters": 128, "kernel_size": [3, 3], "strides": [2, 2], "padding": "same", "data_format": "channels_last", "dilation_rate": [1, 1], "groups": 1, "activation": "linear", "use_bias": false, "kernel_initializer": {"class_name": "VarianceScaling", "config": {"scale": 2.0, "mode": "fan_out", "distribution": "truncated_normal", "seed": null}}, "bias_initializer": {"class_name": "Zeros", "config": {}}, "kernel_regularizer": null, "bias_regularizer": null, "activity_regularizer": null, "kernel_constraint": null, "bias_constraint": null}, "build_config": {"input_shape": [null, 32, 32, 32]}, "name": "block3a_expand_conv", "inbound_nodes": [{"args": [{"class_name": "__keras_tensor__", "config": {"shape": [null, 32, 32, 32], "dtype": "float32", "keras_history": ["block2b_add", 0, 0]}}], "kwargs": {}}]}, {"class_name": "BatchNormalization", "config": {"name": "block3a_expand_bn", "trainable": true, "dtype": {"class_name": "DTypePolicy", "config": {"name": "float32"}, "shared_object_id": 132965955152160}, "axis": 3, "momentum": 0.9, "epsilon": 0.001, "center": true, "scale": true, "beta_initializer": {"class_name": "Zeros", "config": {}}, "gamma_initializer": {"class_name": "Ones", "config": {}}, "moving_mean_initializer": {"class_name": "Zeros", "config": {}}, "moving_variance_initializer": {"class_name": "Ones", "config": {}}, "beta_regularizer": null, "gamma_regularizer": null, "beta_constraint": null, "gamma_constraint": null, "synchronized": false}, "build_config": {"input_shape": [null, 16, 16, 128]}, "name": "block3a_expand_bn", "inbound_nodes": [{"args": [{"class_name": "__keras_tensor__", "config": {"shape": [null, 16, 16, 128], "dtype": "float32", "keras_history": ["block3a_expand_conv", 0, 0]}}], "kwargs": {"mask": null}}]}, {"class_name": "Activation", "config": {"name": "block3a_expand_activation", "trainable": true, "dtype": {"class_name": "DTypePolicy", "config": {"name": "float32"}, "shared_object_id": 132965955152160}, "activation": "silu"}, "build_config": {"input_shape": [null, 16, 16, 128]}, "name": "block3a_expand_activation", "inbound_nodes": [{"args": [{"class_name": "__keras_tensor__", "config": {"shape": [null, 16, 16, 128], "dtype": "float32", "keras_history": ["block3a_expand_bn", 0, 0]}}], "kwargs": {}}]}, {"class_name": "Conv2D", "config": {"name": "block3a_project_conv", "trainable": true, "dtype": {"class_name": "DTypePolicy", "config": {"name": "float32"}, "shared_object_id": 132965955152160}, "filters": 48, "kernel_size": [1, 1], "strides": [1, 1], "padding": "same", "data_format": "channels_last", "dilation_rate": [1, 1], "groups": 1, "activation": "linear", "use_bias": false, "kernel_initializer": {"class_name": "VarianceScaling", "config": {"scale": 2.0, "mode": "fan_out", "distribution": "truncated_normal", "seed": null}}, "bias_initializer": {"class_name": "Zeros", "config": {}}, "kernel_regularizer": null, "bias_regularizer": null, "activity_regularizer": null, "kernel_constraint": null, "bias_constraint": null}, "build_config": {"input_shape": [null, 16, 16, 128]}, "name": "block3a_project_conv", "inbound_nodes": [{"args": [{"class_name": "__keras_tensor__", "config": {"shape": [null, 16, 16, 128], "dtype": "float32", "keras_history": ["block3a_expand_activation", 0, 0]}}], "kwargs": {}}]}, {"class_name": "BatchNormalization", "config": {"name": "block3a_project_bn", "trainable": true, "dtype": {"class_name": "DTypePolicy", "config": {"name": "float32"}, "shared_object_id": 132965955152160}, "axis": 3, "momentum": 0.9, "epsilon": 0.001, "center": true, "scale": true, "beta_initializer": {"class_name": "Zeros", "config": {}}, "gamma_initializer": {"class_name": "Ones", "config": {}}, "moving_mean_initializer": {"class_name": "Zeros", "config": {}}, "moving_variance_initializer": {"class_name": "Ones", "config": {}}, "beta_regularizer": null, "gamma_regularizer": null, "beta_constraint": null, "gamma_constraint": null, "synchronized": false}, "build_config": {"input_shape": [null, 16, 16, 48]}, "name": "block3a_project_bn", "inbound_nodes": [{"args": [{"class_name": "__keras_tensor__", "config": {"shape": [null, 16, 16, 48], "dtype": "float32", "keras_history": ["block3a_project_conv", 0, 0]}}], "kwargs": {"mask": null}}]}, {"class_name": "Conv2D", "config": {"name": "block3b_expand_conv", "trainable": true, "dtype": {"class_name": "DTypePolicy", "config": {"name": "float32"}, "shared_object_id": 132965955152160}, "filters": 192, "kernel_size": [3, 3], "strides": [1, 1], "padding": "same", "data_format": "channels_last", "dilation_rate": [1, 1], "groups": 1, "activation": "linear", "use_bias": false, "kernel_initializer": {"class_name": "VarianceScaling", "config": {"scale": 2.0, "mode": "fan_out", "distribution": "truncated_normal", "seed": null}}, "bias_initializer": {"class_name": "Zeros", "config": {}}, "kernel_regularizer": null, "bias_regularizer": null, "activity_regularizer": null, "kernel_constraint": null, "bias_constraint": null}, "build_config": {"input_shape": [null, 16, 16, 48]}, "name": "block3b_expand_conv", "inbound_nodes": [{"args": [{"class_name": "__keras_tensor__", "config": {"shape": [null, 16, 16, 48], "dtype": "float32", "keras_history": ["block3a_project_bn", 0, 0]}}], "kwargs": {}}]}, {"class_name": "BatchNormalization", "config": {"name": "block3b_expand_bn", "trainable": true, "dtype": {"class_name": "DTypePolicy", "config": {"name": "float32"}, "shared_object_id": 132965955152160}, "axis": 3, "momentum": 0.9, "epsilon": 0.001, "center": true, "scale": true, "beta_initializer": {"class_name": "Zeros", "config": {}}, "gamma_initializer": {"class_name": "Ones", "config": {}}, "moving_mean_initializer": {"class_name": "Zeros", "config": {}}, "moving_variance_initializer": {"class_name": "Ones", "config": {}}, "beta_regularizer": null, "gamma_regularizer": null, "beta_constraint": null, "gamma_constraint": null, "synchronized": false}, "build_config": {"input_shape": [null, 16, 16, 192]}, "name": "block3b_expand_bn", "inbound_nodes": [{"args": [{"class_name": "__keras_tensor__", "config": {"shape": [null, 16, 16, 192], "dtype": "float32", "keras_history": ["block3b_expand_conv", 0, 0]}}], "kwargs": {"mask": null}}]}, {"class_name": "Activation", "config": {"name": "block3b_expand_activation", "trainable": true, "dtype": {"class_name": "DTypePolicy", "config": {"name": "float32"}, "shared_object_id": 132965955152160}, "activation": "silu"}, "build_config": {"input_shape": [null, 16, 16, 192]}, "name": "block3b_expand_activation", "inbound_nodes": [{"args": [{"class_name": "__keras_tensor__", "config": {"shape": [null, 16, 16, 192], "dtype": "float32", "keras_history": ["block3b_expand_bn", 0, 0]}}], "kwargs": {}}]}, {"class_name": "Conv2D", "config": {"name": "block3b_project_conv", "trainable": true, "dtype": {"class_name": "DTypePolicy", "config": {"name": "float32"}, "shared_object_id": 132965955152160}, "filters": 48, "kernel_size": [1, 1], "strides": [1, 1], "padding": "same", "data_format": "channels_last", "dilation_rate": [1, 1], "groups": 1, "activation": "linear", "use_bias": false, "kernel_initializer": {"class_name": "VarianceScaling", "config": {"scale": 2.0, "mode": "fan_out", "distribution": "truncated_normal", "seed": null}}, "bias_initializer": {"class_name": "Zeros", "config": {}}, "kernel_regularizer": null, "bias_regularizer": null, "activity_regularizer": null, "kernel_constraint": null, "bias_constraint": null}, "build_config": {"input_shape": [null, 16, 16, 192]}, "name": "block3b_project_conv", "inbound_nodes": [{"args": [{"class_name": "__keras_tensor__", "config": {"shape": [null, 16, 16, 192], "dtype": "float32", "keras_history": ["block3b_expand_activation", 0, 0]}}], "kwargs": {}}]}, {"class_name": "BatchNormalization", "config": {"name": "block3b_project_bn", "trainable": true, "dtype": {"class_name": "DTypePolicy", "config": {"name": "float32"}, "shared_object_id": 132965955152160}, "axis": 3, "momentum": 0.9, "epsilon": 0.001, "center": true, "scale": true, "beta_initializer": {"class_name": "Zeros", "config": {}}, "gamma_initializer": {"class_name": "Ones", "config": {}}, "moving_mean_initializer": {"class_name": "Zeros", "config": {}}, "moving_variance_initializer": {"class_name": "Ones", "config": {}}, "beta_regularizer": null, "gamma_regularizer": null, "beta_constraint": null, "gamma_constraint": null, "synchronized": false}, "build_config": {"input_shape": [null, 16, 16, 48]}, "name": "block3b_project_bn", "inbound_nodes": [{"args": [{"class_name": "__keras_tensor__", "config": {"shape": [null, 16, 16, 48], "dtype": "float32", "keras_history": ["block3b_project_conv", 0, 0]}}], "kwargs": {"mask": null}}]}, {"class_name": "Dropout", "config": {"name": "block3b_drop", "trainable": true, "dtype": {"class_name": "DTypePolicy", "config": {"name": "float32"}, "shared_object_id": 132965955152160}, "rate": 0.0380952380952381, "seed": null, "noise_shape": [null, 1, 1, 1]}, "build_config": {"input_shape": [null, 16, 16, 48]}, "name": "block3b_drop", "inbound_nodes": [{"args": [{"class_name": "__keras_tensor__", "config": {"shape": [null, 16, 16, 48], "dtype": "float32", "keras_history": ["block3b_project_bn", 0, 0]}}], "kwargs": {"training": false}}]}, {"class_name": "Add", "config": {"name": "block3b_add", "trainable": true, "dtype": {"class_name": "DTypePolicy", "config": {"name": "float32"}, "shared_object_id": 132965955152160}}, "build_config": {"input_shape": [[null, 16, 16, 48], [null, 16, 16, 48]]}, "name": "block3b_add", "inbound_nodes": [{"args": [[{"class_name": "__keras_tensor__", "config": {"shape": [null, 16, 16, 48], "dtype": "float32", "keras_history": ["block3b_drop", 0, 0]}}, {"class_name": "__keras_tensor__", "config": {"shape": [null, 16, 16, 48], "dtype": "float32", "keras_history": ["block3a_project_bn", 0, 0]}}]], "kwargs": {}}]}, {"class_name": "Conv2D", "config": {"name": "block4a_expand_conv", "trainable": true, "dtype": {"class_name": "DTypePolicy", "config": {"name": "float32"}, "shared_object_id": 132965955152160}, "filters": 192, "kernel_size": [1, 1], "strides": [1, 1], "padding": "same", "data_format": "channels_last", "dilation_rate": [1, 1], "groups": 1, "activation": "linear", "use_bias": false, "kernel_initializer": {"class_name": "VarianceScaling", "config": {"scale": 2.0, "mode": "fan_out", "distribution": "truncated_normal", "seed": null}}, "bias_initializer": {"class_name": "Zeros", "config": {}}, "kernel_regularizer": null, "bias_regularizer": null, "activity_regularizer": null, "kernel_constraint": null, "bias_constraint": null}, "build_config": {"input_shape": [null, 16, 16, 48]}, "name": "block4a_expand_conv", "inbound_nodes": [{"args": [{"class_name": "__keras_tensor__", "config": {"shape": [null, 16, 16, 48], "dtype": "float32", "keras_history": ["block3b_add", 0, 0]}}], "kwargs": {}}]}, {"class_name": "BatchNormalization", "config": {"name": "block4a_expand_bn", "trainable": true, "dtype": {"class_name": "DTypePolicy", "config": {"name": "float32"}, "shared_object_id": 132965955152160}, "axis": 3, "momentum": 0.9, "epsilon": 0.001, "center": true, "scale": true, "beta_initializer": {"class_name": "Zeros", "config": {}}, "gamma_initializer": {"class_name": "Ones", "config": {}}, "moving_mean_initializer": {"class_name": "Zeros", "config": {}}, "moving_variance_initializer": {"class_name": "Ones", "config": {}}, "beta_regularizer": null, "gamma_regularizer": null, "beta_constraint": null, "gamma_constraint": null, "synchronized": false}, "build_config": {"input_shape": [null, 16, 16, 192]}, "name": "block4a_expand_bn", "inbound_nodes": [{"args": [{"class_name": "__keras_tensor__", "config": {"shape": [null, 16, 16, 192], "dtype": "float32", "keras_history": ["block4a_expand_conv", 0, 0]}}], "kwargs": {"mask": null}}]}, {"class_name": "Activation", "config": {"name": "block4a_expand_activation", "trainable": true, "dtype": {"class_name": "DTypePolicy", "config": {"name": "float32"}, "shared_object_id": 132965955152160}, "activation": "silu"}, "build_config": {"input_shape": [null, 16, 16, 192]}, "name": "block4a_expand_activation", "inbound_nodes": [{"args": [{"class_name": "__keras_tensor__", "config": {"shape": [null, 16, 16, 192], "dtype": "float32", "keras_history": ["block4a_expand_bn", 0, 0]}}], "kwargs": {}}]}, {"class_name": "DepthwiseConv2D", "config": {"name": "block4a_dwconv2", "trainable": true, "dtype": {"class_name": "DTypePolicy", "config": {"name": "float32"}, "shared_object_id": 132965955152160}, "depth_multiplier": 1, "kernel_size": [3, 3], "strides": [2, 2], "padding": "same", "data_format": "channels_last", "dilation_rate": [1, 1], "activation": "linear", "use_bias": false, "depthwise_initializer": {"class_name": "VarianceScaling", "config": {"scale": 2.0, "mode": "fan_out", "distribution": "truncated_normal", "seed": null}}, "bias_initializer": {"class_name": "Zeros", "config": {}}, "depthwise_regularizer": null, "bias_regularizer": null, "activity_regularizer": null, "depthwise_constraint": null, "bias_constraint": null}, "build_config": {"input_shape": [null, 16, 16, 192]}, "name": "block4a_dwconv2", "inbound_nodes": [{"args": [{"class_name": "__keras_tensor__", "config": {"shape": [null, 16, 16, 192], "dtype": "float32", "keras_history": ["block4a_expand_activation", 0, 0]}}], "kwargs": {}}]}, {"class_name": "BatchNormalization", "config": {"name": "block4a_bn", "trainable": true, "dtype": {"class_name": "DTypePolicy", "config": {"name": "float32"}, "shared_object_id": 132965955152160}, "axis": 3, "momentum": 0.9, "epsilon": 0.001, "center": true, "scale": true, "beta_initializer": {"class_name": "Zeros", "config": {}}, "gamma_initializer": {"class_name": "Ones", "config": {}}, "moving_mean_initializer": {"class_name": "Zeros", "config": {}}, "moving_variance_initializer": {"class_name": "Ones", "config": {}}, "beta_regularizer": null, "gamma_regularizer": null, "beta_constraint": null, "gamma_constraint": null, "synchronized": false}, "build_config": {"input_shape": [null, 8, 8, 192]}, "name": "block4a_bn", "inbound_nodes": [{"args": [{"class_name": "__keras_tensor__", "config": {"shape": [null, 8, 8, 192], "dtype": "float32", "keras_history": ["block4a_dwconv2", 0, 0]}}], "kwargs": {"mask": null}}]}, {"class_name": "Activation", "config": {"name": "block4a_activation", "trainable": true, "dtype": {"class_name": "DTypePolicy", "config": {"name": "float32"}, "shared_object_id": 132965955152160}, "activation": "silu"}, "build_config": {"input_shape": [null, 8, 8, 192]}, "name": "block4a_activation", "inbound_nodes": [{"args": [{"class_name": "__keras_tensor__", "config": {"shape": [null, 8, 8, 192], "dtype": "float32", "keras_history": ["block4a_bn", 0, 0]}}], "kwargs": {}}]}, {"class_name": "GlobalAveragePooling2D", "config": {"name": "block4a_se_squeeze", "trainable": true, "dtype": {"class_name": "DTypePolicy", "config": {"name": "float32"}, "shared_object_id": 132965955152160}, "data_format": "channels_last", "keepdims": false}, "build_config": {"input_shape": [null, 8, 8, 192]}, "name": "block4a_se_squeeze", "inbound_nodes": [{"args": [{"class_name": "__keras_tensor__", "config": {"shape": [null, 8, 8, 192], "dtype": "float32", "keras_history": ["block4a_activation", 0, 0]}}], "kwargs": {}}]}, {"class_name": "Reshape", "config": {"name": "block4a_se_reshape", "trainable": true, "dtype": {"class_name": "DTypePolicy", "config": {"name": "float32"}, "shared_object_id": 132965955152160}, "target_shape": [1, 1, 192]}, "build_config": {"input_shape": [null, 192]}, "name": "block4a_se_reshape", "inbound_nodes": [{"args": [{"class_name": "__keras_tensor__", "config": {"shape": [null, 192], "dtype": "float32", "keras_history": ["block4a_se_squeeze", 0, 0]}}], "kwargs": {}}]}, {"class_name": "Conv2D", "config": {"name": "block4a_se_reduce", "trainable": true, "dtype": {"class_name": "DTypePolicy", "config": {"name": "float32"}, "shared_object_id": 132965955152160}, "filters": 12, "kernel_size": [1, 1], "strides": [1, 1], "padding": "same", "data_format": "channels_last", "dilation_rate": [1, 1], "groups": 1, "activation": "silu", "use_bias": true, "kernel_initializer": {"class_name": "VarianceScaling", "config": {"scale": 2.0, "mode": "fan_out", "distribution": "truncated_normal", "seed": null}}, "bias_initializer": {"class_name": "Zeros", "config": {}}, "kernel_regularizer": null, "bias_regularizer": null, "activity_regularizer": null, "kernel_constraint": null, "bias_constraint": null}, "build_config": {"input_shape": [null, 1, 1, 192]}, "name": "block4a_se_reduce", "inbound_nodes": [{"args": [{"class_name": "__keras_tensor__", "config": {"shape": [null, 1, 1, 192], "dtype": "float32", "keras_history": ["block4a_se_reshape", 0, 0]}}], "kwargs": {}}]}, {"class_name": "Conv2D", "config": {"name": "block4a_se_expand", "trainable": true, "dtype": {"class_name": "DTypePolicy", "config": {"name": "float32"}, "shared_object_id": 132965955152160}, "filters": 192, "kernel_size": [1, 1], "strides": [1, 1], "padding": "same", "data_format": "channels_last", "dilation_rate": [1, 1], "groups": 1, "activation": "sigmoid", "use_bias": true, "kernel_initializer": {"class_name": "VarianceScaling", "config": {"scale": 2.0, "mode": "fan_out", "distribution": "truncated_normal", "seed": null}}, "bias_initializer": {"class_name": "Zeros", "config": {}}, "kernel_regularizer": null, "bias_regularizer": null, "activity_regularizer": null, "kernel_constraint": null, "bias_constraint": null}, "build_config": {"input_shape": [null, 1, 1, 12]}, "name": "block4a_se_expand", "inbound_nodes": [{"args": [{"class_name": "__keras_tensor__", "config": {"shape": [null, 1, 1, 12], "dtype": "float32", "keras_history": ["block4a_se_reduce", 0, 0]}}], "kwargs": {}}]}, {"class_name": "Multiply", "config": {"name": "block4a_se_excite", "trainable": true, "dtype": {"class_name": "DTypePolicy", "config": {"name": "float32"}, "shared_object_id": 132965955152160}}, "build_config": {"input_shape": [[null, 8, 8, 192], [null, 1, 1, 192]]}, "name": "block4a_se_excite", "inbound_nodes": [{"args": [[{"class_name": "__keras_tensor__", "config": {"shape": [null, 8, 8, 192], "dtype": "float32", "keras_history": ["block4a_activation", 0, 0]}}, {"class_name": "__keras_tensor__", "config": {"shape": [null, 1, 1, 192], "dtype": "float32", "keras_history": ["block4a_se_expand", 0, 0]}}]], "kwargs": {}}]}, {"class_name": "Conv2D", "config": {"name": "block4a_project_conv", "trainable": true, "dtype": {"class_name": "DTypePolicy", "config": {"name": "float32"}, "shared_object_id": 132965955152160}, "filters": 96, "kernel_size": [1, 1], "strides": [1, 1], "padding": "same", "data_format": "channels_last", "dilation_rate": [1, 1], "groups": 1, "activation": "linear", "use_bias": false, "kernel_initializer": {"class_name": "VarianceScaling", "config": {"scale": 2.0, "mode": "fan_out", "distribution": "truncated_normal", "seed": null}}, "bias_initializer": {"class_name": "Zeros", "config": {}}, "kernel_regularizer": null, "bias_regularizer": null, "activity_regularizer": null, "kernel_constraint": null, "bias_constraint": null}, "build_config": {"input_shape": [null, 8, 8, 192]}, "name": "block4a_project_conv", "inbound_nodes": [{"args": [{"class_name": "__keras_tensor__", "config": {"shape": [null, 8, 8, 192], "dtype": "float32", "keras_history": ["block4a_se_excite", 0, 0]}}], "kwargs": {}}]}, {"class_name": "BatchNormalization", "config": {"name": "block4a_project_bn", "trainable": true, "dtype": {"class_name": "DTypePolicy", "config": {"name": "float32"}, "shared_object_id": 132965955152160}, "axis": 3, "momentum": 0.9, "epsilon": 0.001, "center": true, "scale": true, "beta_initializer": {"class_name": "Zeros", "config": {}}, "gamma_initializer": {"class_name": "Ones", "config": {}}, "moving_mean_initializer": {"class_name": "Zeros", "config": {}}, "moving_variance_initializer": {"class_name": "Ones", "config": {}}, "beta_regularizer": null, "gamma_regularizer": null, "beta_constraint": null, "gamma_constraint": null, "synchronized": false}, "build_config": {"input_shape": [null, 8, 8, 96]}, "name": "block4a_project_bn", "inbound_nodes": [{"args": [{"class_name": "__keras_tensor__", "config": {"shape": [null, 8, 8, 96], "dtype": "float32", "keras_history": ["block4a_project_conv", 0, 0]}}], "kwargs": {"mask": null}}]}, {"class_name": "Conv2D", "config": {"name": "block4b_expand_conv", "trainable": true, "dtype": {"class_name": "DTypePolicy", "config": {"name": "float32"}, "shared_object_id": 132965955152160}, "filters": 384, "kernel_size": [1, 1], "strides": [1, 1], "padding": "same", "data_format": "channels_last", "dilation_rate": [1, 1], "groups": 1, "activation": "linear", "use_bias": false, "kernel_initializer": {"class_name": "VarianceScaling", "config": {"scale": 2.0, "mode": "fan_out", "distribution": "truncated_normal", "seed": null}}, "bias_initializer": {"class_name": "Zeros", "config": {}}, "kernel_regularizer": null, "bias_regularizer": null, "activity_regularizer": null, "kernel_constraint": null, "bias_constraint": null}, "build_config": {"input_shape": [null, 8, 8, 96]}, "name": "block4b_expand_conv", "inbound_nodes": [{"args": [{"class_name": "__keras_tensor__", "config": {"shape": [null, 8, 8, 96], "dtype": "float32", "keras_history": ["block4a_project_bn", 0, 0]}}], "kwargs": {}}]}, {"class_name": "BatchNormalization", "config": {"name": "block4b_expand_bn", "trainable": true, "dtype": {"class_name": "DTypePolicy", "config": {"name": "float32"}, "shared_object_id": 132965955152160}, "axis": 3, "momentum": 0.9, "epsilon": 0.001, "center": true, "scale": true, "beta_initializer": {"class_name": "Zeros", "config": {}}, "gamma_initializer": {"class_name": "Ones", "config": {}}, "moving_mean_initializer": {"class_name": "Zeros", "config": {}}, "moving_variance_initializer": {"class_name": "Ones", "config": {}}, "beta_regularizer": null, "gamma_regularizer": null, "beta_constraint": null, "gamma_constraint": null, "synchronized": false}, "build_config": {"input_shape": [null, 8, 8, 384]}, "name": "block4b_expand_bn", "inbound_nodes": [{"args": [{"class_name": "__keras_tensor__", "config": {"shape": [null, 8, 8, 384], "dtype": "float32", "keras_history": ["block4b_expand_conv", 0, 0]}}], "kwargs": {"mask": null}}]}, {"class_name": "Activation", "config": {"name": "block4b_expand_activation", "trainable": true, "dtype": {"class_name": "DTypePolicy", "config": {"name": "float32"}, "shared_object_id": 132965955152160}, "activation": "silu"}, "build_config": {"input_shape": [null, 8, 8, 384]}, "name": "block4b_expand_activation", "inbound_nodes": [{"args": [{"class_name": "__keras_tensor__", "config": {"shape": [null, 8, 8, 384], "dtype": "float32", "keras_history": ["block4b_expand_bn", 0, 0]}}], "kwargs": {}}]}, {"class_name": "DepthwiseConv2D", "config": {"name": "block4b_dwconv2", "trainable": true, "dtype": {"class_name": "DTypePolicy", "config": {"name": "float32"}, "shared_object_id": 132965955152160}, "depth_multiplier": 1, "kernel_size": [3, 3], "strides": [1, 1], "padding": "same", "data_format": "channels_last", "dilation_rate": [1, 1], "activation": "linear", "use_bias": false, "depthwise_initializer": {"class_name": "VarianceScaling", "config": {"scale": 2.0, "mode": "fan_out", "distribution": "truncated_normal", "seed": null}}, "bias_initializer": {"class_name": "Zeros", "config": {}}, "depthwise_regularizer": null, "bias_regularizer": null, "activity_regularizer": null, "depthwise_constraint": null, "bias_constraint": null}, "build_config": {"input_shape": [null, 8, 8, 384]}, "name": "block4b_dwconv2", "inbound_nodes": [{"args": [{"class_name": "__keras_tensor__", "config": {"shape": [null, 8, 8, 384], "dtype": "float32", "keras_history": ["block4b_expand_activation", 0, 0]}}], "kwargs": {}}]}, {"class_name": "BatchNormalization", "config": {"name": "block4b_bn", "trainable": true, "dtype": {"class_name": "DTypePolicy", "config": {"name": "float32"}, "shared_object_id": 132965955152160}, "axis": 3, "momentum": 0.9, "epsilon": 0.001, "center": true, "scale": true, "beta_initializer": {"class_name": "Zeros", "config": {}}, "gamma_initializer": {"class_name": "Ones", "config": {}}, "moving_mean_initializer": {"class_name": "Zeros", "config": {}}, "moving_variance_initializer": {"class_name": "Ones", "config": {}}, "beta_regularizer": null, "gamma_regularizer": null, "beta_constraint": null, "gamma_constraint": null, "synchronized": false}, "build_config": {"input_shape": [null, 8, 8, 384]}, "name": "block4b_bn", "inbound_nodes": [{"args": [{"class_name": "__keras_tensor__", "config": {"shape": [null, 8, 8, 384], "dtype": "float32", "keras_history": ["block4b_dwconv2", 0, 0]}}], "kwargs": {"mask": null}}]}, {"class_name": "Activation", "config": {"name": "block4b_activation", "trainable": true, "dtype": {"class_name": "DTypePolicy", "config": {"name": "float32"}, "shared_object_id": 132965955152160}, "activation": "silu"}, "build_config": {"input_shape": [null, 8, 8, 384]}, "name": "block4b_activation", "inbound_nodes": [{"args": [{"class_name": "__keras_tensor__", "config": {"shape": [null, 8, 8, 384], "dtype": "float32", "keras_history": ["block4b_bn", 0, 0]}}], "kwargs": {}}]}, {"class_name": "GlobalAveragePooling2D", "config": {"name": "block4b_se_squeeze", "trainable": true, "dtype": {"class_name": "DTypePolicy", "config": {"name": "float32"}, "shared_object_id": 132965955152160}, "data_format": "channels_last", "keepdims": false}, "build_config": {"input_shape": [null, 8, 8, 384]}, "name": "block4b_se_squeeze", "inbound_nodes": [{"args": [{"class_name": "__keras_tensor__", "config": {"shape": [null, 8, 8, 384], "dtype": "float32", "keras_history": ["block4b_activation", 0, 0]}}], "kwargs": {}}]}, {"class_name": "Reshape", "config": {"name": "block4b_se_reshape", "trainable": true, "dtype": {"class_name": "DTypePolicy", "config": {"name": "float32"}, "shared_object_id": 132965955152160}, "target_shape": [1, 1, 384]}, "build_config": {"input_shape": [null, 384]}, "name": "block4b_se_reshape", "inbound_nodes": [{"args": [{"class_name": "__keras_tensor__", "config": {"shape": [null, 384], "dtype": "float32", "keras_history": ["block4b_se_squeeze", 0, 0]}}], "kwargs": {}}]}, {"class_name": "Conv2D", "config": {"name": "block4b_se_reduce", "trainable": true, "dtype": {"class_name": "DTypePolicy", "config": {"name": "float32"}, "shared_object_id": 132965955152160}, "filters": 24, "kernel_size": [1, 1], "strides": [1, 1], "padding": "same", "data_format": "channels_last", "dilation_rate": [1, 1], "groups": 1, "activation": "silu", "use_bias": true, "kernel_initializer": {"class_name": "VarianceScaling", "config": {"scale": 2.0, "mode": "fan_out", "distribution": "truncated_normal", "seed": null}}, "bias_initializer": {"class_name": "Zeros", "config": {}}, "kernel_regularizer": null, "bias_regularizer": null, "activity_regularizer": null, "kernel_constraint": null, "bias_constraint": null}, "build_config": {"input_shape": [null, 1, 1, 384]}, "name": "block4b_se_reduce", "inbound_nodes": [{"args": [{"class_name": "__keras_tensor__", "config": {"shape": [null, 1, 1, 384], "dtype": "float32", "keras_history": ["block4b_se_reshape", 0, 0]}}], "kwargs": {}}]}, {"class_name": "Conv2D", "config": {"name": "block4b_se_expand", "trainable": true, "dtype": {"class_name": "DTypePolicy", "config": {"name": "float32"}, "shared_object_id": 132965955152160}, "filters": 384, "kernel_size": [1, 1], "strides": [1, 1], "padding": "same", "data_format": "channels_last", "dilation_rate": [1, 1], "groups": 1, "activation": "sigmoid", "use_bias": true, "kernel_initializer": {"class_name": "VarianceScaling", "config": {"scale": 2.0, "mode": "fan_out", "distribution": "truncated_normal", "seed": null}}, "bias_initializer": {"class_name": "Zeros", "config": {}}, "kernel_regularizer": null, "bias_regularizer": null, "activity_regularizer": null, "kernel_constraint": null, "bias_constraint": null}, "build_config": {"input_shape": [null, 1, 1, 24]}, "name": "block4b_se_expand", "inbound_nodes": [{"args": [{"class_name": "__keras_tensor__", "config": {"shape": [null, 1, 1, 24], "dtype": "float32", "keras_history": ["block4b_se_reduce", 0, 0]}}], "kwargs": {}}]}, {"class_name": "Multiply", "config": {"name": "block4b_se_excite", "trainable": true, "dtype": {"class_name": "DTypePolicy", "config": {"name": "float32"}, "shared_object_id": 132965955152160}}, "build_config": {"input_shape": [[null, 8, 8, 384], [null, 1, 1, 384]]}, "name": "block4b_se_excite", "inbound_nodes": [{"args": [[{"class_name": "__keras_tensor__", "config": {"shape": [null, 8, 8, 384], "dtype": "float32", "keras_history": ["block4b_activation", 0, 0]}}, {"class_name": "__keras_tensor__", "config": {"shape": [null, 1, 1, 384], "dtype": "float32", "keras_history": ["block4b_se_expand", 0, 0]}}]], "kwargs": {}}]}, {"class_name": "Conv2D", "config": {"name": "block4b_project_conv", "trainable": true, "dtype": {"class_name": "DTypePolicy", "config": {"name": "float32"}, "shared_object_id": 132965955152160}, "filters": 96, "kernel_size": [1, 1], "strides": [1, 1], "padding": "same", "data_format": "channels_last", "dilation_rate": [1, 1], "groups": 1, "activation": "linear", "use_bias": false, "kernel_initializer": {"class_name": "VarianceScaling", "config": {"scale": 2.0, "mode": "fan_out", "distribution": "truncated_normal", "seed": null}}, "bias_initializer": {"class_name": "Zeros", "config": {}}, "kernel_regularizer": null, "bias_regularizer": null, "activity_regularizer": null, "kernel_constraint": null, "bias_constraint": null}, "build_config": {"input_shape": [null, 8, 8, 384]}, "name": "block4b_project_conv", "inbound_nodes": [{"args": [{"class_name": "__keras_tensor__", "config": {"shape": [null, 8, 8, 384], "dtype": "float32", "keras_history": ["block4b_se_excite", 0, 0]}}], "kwargs": {}}]}, {"class_name": "BatchNormalization", "config": {"name": "block4b_project_bn", "trainable": true, "dtype": {"class_name": "DTypePolicy", "config": {"name": "float32"}, "shared_object_id": 132965955152160}, "axis": 3, "momentum": 0.9, "epsilon": 0.001, "center": true, "scale": true, "beta_initializer": {"class_name": "Zeros", "config": {}}, "gamma_initializer": {"class_name": "Ones", "config": {}}, "moving_mean_initializer": {"class_name": "Zeros", "config": {}}, "moving_variance_initializer": {"class_name": "Ones", "config": {}}, "beta_regularizer": null, "gamma_regularizer": null, "beta_constraint": null, "gamma_constraint": null, "synchronized": false}, "build_config": {"input_shape": [null, 8, 8, 96]}, "name": "block4b_project_bn", "inbound_nodes": [{"args": [{"class_name": "__keras_tensor__", "config": {"shape": [null, 8, 8, 96], "dtype": "float32", "keras_history": ["block4b_project_conv", 0, 0]}}], "kwargs": {"mask": null}}]}, {"class_name": "Dropout", "config": {"name": "block4b_drop", "trainable": true, "dtype": {"class_name": "DTypePolicy", "config": {"name": "float32"}, "shared_object_id": 132965955152160}, "rate": 0.05714285714285715, "seed": null, "noise_shape": [null, 1, 1, 1]}, "build_config": {"input_shape": [null, 8, 8, 96]}, "name": "block4b_drop", "inbound_nodes": [{"args": [{"class_name": "__keras_tensor__", "config": {"shape": [null, 8, 8, 96], "dtype": "float32", "keras_history": ["block4b_project_bn", 0, 0]}}], "kwargs": {"training": false}}]}, {"class_name": "Add", "config": {"name": "block4b_add", "trainable": true, "dtype": {"class_name": "DTypePolicy", "config": {"name": "float32"}, "shared_object_id": 132965955152160}}, "build_config": {"input_shape": [[null, 8, 8, 96], [null, 8, 8, 96]]}, "name": "block4b_add", "inbound_nodes": [{"args": [[{"class_name": "__keras_tensor__", "config": {"shape": [null, 8, 8, 96], "dtype": "float32", "keras_history": ["block4b_drop", 0, 0]}}, {"class_name": "__keras_tensor__", "config": {"shape": [null, 8, 8, 96], "dtype": "float32", "keras_history": ["block4a_project_bn", 0, 0]}}]], "kwargs": {}}]}, {"class_name": "Conv2D", "config": {"name": "block4c_expand_conv", "trainable": true, "dtype": {"class_name": "DTypePolicy", "config": {"name": "float32"}, "shared_object_id": 132965955152160}, "filters": 384, "kernel_size": [1, 1], "strides": [1, 1], "padding": "same", "data_format": "channels_last", "dilation_rate": [1, 1], "groups": 1, "activation": "linear", "use_bias": false, "kernel_initializer": {"class_name": "VarianceScaling", "config": {"scale": 2.0, "mode": "fan_out", "distribution": "truncated_normal", "seed": null}}, "bias_initializer": {"class_name": "Zeros", "config": {}}, "kernel_regularizer": null, "bias_regularizer": null, "activity_regularizer": null, "kernel_constraint": null, "bias_constraint": null}, "build_config": {"input_shape": [null, 8, 8, 96]}, "name": "block4c_expand_conv", "inbound_nodes": [{"args": [{"class_name": "__keras_tensor__", "config": {"shape": [null, 8, 8, 96], "dtype": "float32", "keras_history": ["block4b_add", 0, 0]}}], "kwargs": {}}]}, {"class_name": "BatchNormalization", "config": {"name": "block4c_expand_bn", "trainable": true, "dtype": {"class_name": "DTypePolicy", "config": {"name": "float32"}, "shared_object_id": 132965955152160}, "axis": 3, "momentum": 0.9, "epsilon": 0.001, "center": true, "scale": true, "beta_initializer": {"class_name": "Zeros", "config": {}}, "gamma_initializer": {"class_name": "Ones", "config": {}}, "moving_mean_initializer": {"class_name": "Zeros", "config": {}}, "moving_variance_initializer": {"class_name": "Ones", "config": {}}, "beta_regularizer": null, "gamma_regularizer": null, "beta_constraint": null, "gamma_constraint": null, "synchronized": false}, "build_config": {"input_shape": [null, 8, 8, 384]}, "name": "block4c_expand_bn", "inbound_nodes": [{"args": [{"class_name": "__keras_tensor__", "config": {"shape": [null, 8, 8, 384], "dtype": "float32", "keras_history": ["block4c_expand_conv", 0, 0]}}], "kwargs": {"mask": null}}]}, {"class_name": "Activation", "config": {"name": "block4c_expand_activation", "trainable": true, "dtype": {"class_name": "DTypePolicy", "config": {"name": "float32"}, "shared_object_id": 132965955152160}, "activation": "silu"}, "build_config": {"input_shape": [null, 8, 8, 384]}, "name": "block4c_expand_activation", "inbound_nodes": [{"args": [{"class_name": "__keras_tensor__", "config": {"shape": [null, 8, 8, 384], "dtype": "float32", "keras_history": ["block4c_expand_bn", 0, 0]}}], "kwargs": {}}]}, {"class_name": "DepthwiseConv2D", "config": {"name": "block4c_dwconv2", "trainable": true, "dtype": {"class_name": "DTypePolicy", "config": {"name": "float32"}, "shared_object_id": 132965955152160}, "depth_multiplier": 1, "kernel_size": [3, 3], "strides": [1, 1], "padding": "same", "data_format": "channels_last", "dilation_rate": [1, 1], "activation": "linear", "use_bias": false, "depthwise_initializer": {"class_name": "VarianceScaling", "config": {"scale": 2.0, "mode": "fan_out", "distribution": "truncated_normal", "seed": null}}, "bias_initializer": {"class_name": "Zeros", "config": {}}, "depthwise_regularizer": null, "bias_regularizer": null, "activity_regularizer": null, "depthwise_constraint": null, "bias_constraint": null}, "build_config": {"input_shape": [null, 8, 8, 384]}, "name": "block4c_dwconv2", "inbound_nodes": [{"args": [{"class_name": "__keras_tensor__", "config": {"shape": [null, 8, 8, 384], "dtype": "float32", "keras_history": ["block4c_expand_activation", 0, 0]}}], "kwargs": {}}]}, {"class_name": "BatchNormalization", "config": {"name": "block4c_bn", "trainable": true, "dtype": {"class_name": "DTypePolicy", "config": {"name": "float32"}, "shared_object_id": 132965955152160}, "axis": 3, "momentum": 0.9, "epsilon": 0.001, "center": true, "scale": true, "beta_initializer": {"class_name": "Zeros", "config": {}}, "gamma_initializer": {"class_name": "Ones", "config": {}}, "moving_mean_initializer": {"class_name": "Zeros", "config": {}}, "moving_variance_initializer": {"class_name": "Ones", "config": {}}, "beta_regularizer": null, "gamma_regularizer": null, "beta_constraint": null, "gamma_constraint": null, "synchronized": false}, "build_config": {"input_shape": [null, 8, 8, 384]}, "name": "block4c_bn", "inbound_nodes": [{"args": [{"class_name": "__keras_tensor__", "config": {"shape": [null, 8, 8, 384], "dtype": "float32", "keras_history": ["block4c_dwconv2", 0, 0]}}], "kwargs": {"mask": null}}]}, {"class_name": "Activation", "config": {"name": "block4c_activation", "trainable": true, "dtype": {"class_name": "DTypePolicy", "config": {"name": "float32"}, "shared_object_id": 132965955152160}, "activation": "silu"}, "build_config": {"input_shape": [null, 8, 8, 384]}, "name": "block4c_activation", "inbound_nodes": [{"args": [{"class_name": "__keras_tensor__", "config": {"shape": [null, 8, 8, 384], "dtype": "float32", "keras_history": ["block4c_bn", 0, 0]}}], "kwargs": {}}]}, {"class_name": "GlobalAveragePooling2D", "config": {"name": "block4c_se_squeeze", "trainable": true, "dtype": {"class_name": "DTypePolicy", "config": {"name": "float32"}, "shared_object_id": 132965955152160}, "data_format": "channels_last", "keepdims": false}, "build_config": {"input_shape": [null, 8, 8, 384]}, "name": "block4c_se_squeeze", "inbound_nodes": [{"args": [{"class_name": "__keras_tensor__", "config": {"shape": [null, 8, 8, 384], "dtype": "float32", "keras_history": ["block4c_activation", 0, 0]}}], "kwargs": {}}]}, {"class_name": "Reshape", "config": {"name": "block4c_se_reshape", "trainable": true, "dtype": {"class_name": "DTypePolicy", "config": {"name": "float32"}, "shared_object_id": 132965955152160}, "target_shape": [1, 1, 384]}, "build_config": {"input_shape": [null, 384]}, "name": "block4c_se_reshape", "inbound_nodes": [{"args": [{"class_name": "__keras_tensor__", "config": {"shape": [null, 384], "dtype": "float32", "keras_history": ["block4c_se_squeeze", 0, 0]}}], "kwargs": {}}]}, {"class_name": "Conv2D", "config": {"name": "block4c_se_reduce", "trainable": true, "dtype": {"class_name": "DTypePolicy", "config": {"name": "float32"}, "shared_object_id": 132965955152160}, "filters": 24, "kernel_size": [1, 1], "strides": [1, 1], "padding": "same", "data_format": "channels_last", "dilation_rate": [1, 1], "groups": 1, "activation": "silu", "use_bias": true, "kernel_initializer": {"class_name": "VarianceScaling", "config": {"scale": 2.0, "mode": "fan_out", "distribution": "truncated_normal", "seed": null}}, "bias_initializer": {"class_name": "Zeros", "config": {}}, "kernel_regularizer": null, "bias_regularizer": null, "activity_regularizer": null, "kernel_constraint": null, "bias_constraint": null}, "build_config": {"input_shape": [null, 1, 1, 384]}, "name": "block4c_se_reduce", "inbound_nodes": [{"args": [{"class_name": "__keras_tensor__", "config": {"shape": [null, 1, 1, 384], "dtype": "float32", "keras_history": ["block4c_se_reshape", 0, 0]}}], "kwargs": {}}]}, {"class_name": "Conv2D", "config": {"name": "block4c_se_expand", "trainable": true, "dtype": {"class_name": "DTypePolicy", "config": {"name": "float32"}, "shared_object_id": 132965955152160}, "filters": 384, "kernel_size": [1, 1], "strides": [1, 1], "padding": "same", "data_format": "channels_last", "dilation_rate": [1, 1], "groups": 1, "activation": "sigmoid", "use_bias": true, "kernel_initializer": {"class_name": "VarianceScaling", "config": {"scale": 2.0, "mode": "fan_out", "distribution": "truncated_normal", "seed": null}}, "bias_initializer": {"class_name": "Zeros", "config": {}}, "kernel_regularizer": null, "bias_regularizer": null, "activity_regularizer": null, "kernel_constraint": null, "bias_constraint": null}, "build_config": {"input_shape": [null, 1, 1, 24]}, "name": "block4c_se_expand", "inbound_nodes": [{"args": [{"class_name": "__keras_tensor__", "config": {"shape": [null, 1, 1, 24], "dtype": "float32", "keras_history": ["block4c_se_reduce", 0, 0]}}], "kwargs": {}}]}, {"class_name": "Multiply", "config": {"name": "block4c_se_excite", "trainable": true, "dtype": {"class_name": "DTypePolicy", "config": {"name": "float32"}, "shared_object_id": 132965955152160}}, "build_config": {"input_shape": [[null, 8, 8, 384], [null, 1, 1, 384]]}, "name": "block4c_se_excite", "inbound_nodes": [{"args": [[{"class_name": "__keras_tensor__", "config": {"shape": [null, 8, 8, 384], "dtype": "float32", "keras_history": ["block4c_activation", 0, 0]}}, {"class_name": "__keras_tensor__", "config": {"shape": [null, 1, 1, 384], "dtype": "float32", "keras_history": ["block4c_se_expand", 0, 0]}}]], "kwargs": {}}]}, {"class_name": "Conv2D", "config": {"name": "block4c_project_conv", "trainable": true, "dtype": {"class_name": "DTypePolicy", "config": {"name": "float32"}, "shared_object_id": 132965955152160}, "filters": 96, "kernel_size": [1, 1], "strides": [1, 1], "padding": "same", "data_format": "channels_last", "dilation_rate": [1, 1], "groups": 1, "activation": "linear", "use_bias": false, "kernel_initializer": {"class_name": "VarianceScaling", "config": {"scale": 2.0, "mode": "fan_out", "distribution": "truncated_normal", "seed": null}}, "bias_initializer": {"class_name": "Zeros", "config": {}}, "kernel_regularizer": null, "bias_regularizer": null, "activity_regularizer": null, "kernel_constraint": null, "bias_constraint": null}, "build_config": {"input_shape": [null, 8, 8, 384]}, "name": "block4c_project_conv", "inbound_nodes": [{"args": [{"class_name": "__keras_tensor__", "config": {"shape": [null, 8, 8, 384], "dtype": "float32", "keras_history": ["block4c_se_excite", 0, 0]}}], "kwargs": {}}]}, {"class_name": "BatchNormalization", "config": {"name": "block4c_project_bn", "trainable": true, "dtype": {"class_name": "DTypePolicy", "config": {"name": "float32"}, "shared_object_id": 132965955152160}, "axis": 3, "momentum": 0.9, "epsilon": 0.001, "center": true, "scale": true, "beta_initializer": {"class_name": "Zeros", "config": {}}, "gamma_initializer": {"class_name": "Ones", "config": {}}, "moving_mean_initializer": {"class_name": "Zeros", "config": {}}, "moving_variance_initializer": {"class_name": "Ones", "config": {}}, "beta_regularizer": null, "gamma_regularizer": null, "beta_constraint": null, "gamma_constraint": null, "synchronized": false}, "build_config": {"input_shape": [null, 8, 8, 96]}, "name": "block4c_project_bn", "inbound_nodes": [{"args": [{"class_name": "__keras_tensor__", "config": {"shape": [null, 8, 8, 96], "dtype": "float32", "keras_history": ["block4c_project_conv", 0, 0]}}], "kwargs": {"mask": null}}]}, {"class_name": "Dropout", "config": {"name": "block4c_drop", "trainable": true, "dtype": {"class_name": "DTypePolicy", "config": {"name": "float32"}, "shared_object_id": 132965955152160}, "rate": 0.06666666666666668, "seed": null, "noise_shape": [null, 1, 1, 1]}, "build_config": {"input_shape": [null, 8, 8, 96]}, "name": "block4c_drop", "inbound_nodes": [{"args": [{"class_name": "__keras_tensor__", "config": {"shape": [null, 8, 8, 96], "dtype": "float32", "keras_history": ["block4c_project_bn", 0, 0]}}], "kwargs": {"training": false}}]}, {"class_name": "Add", "config": {"name": "block4c_add", "trainable": true, "dtype": {"class_name": "DTypePolicy", "config": {"name": "float32"}, "shared_object_id": 132965955152160}}, "build_config": {"input_shape": [[null, 8, 8, 96], [null, 8, 8, 96]]}, "name": "block4c_add", "inbound_nodes": [{"args": [[{"class_name": "__keras_tensor__", "config": {"shape": [null, 8, 8, 96], "dtype": "float32", "keras_history": ["block4c_drop", 0, 0]}}, {"class_name": "__keras_tensor__", "config": {"shape": [null, 8, 8, 96], "dtype": "float32", "keras_history": ["block4b_add", 0, 0]}}]], "kwargs": {}}]}, {"class_name": "Conv2D", "config": {"name": "block5a_expand_conv", "trainable": true, "dtype": {"class_name": "DTypePolicy", "config": {"name": "float32"}, "shared_object_id": 132965955152160}, "filters": 576, "kernel_size": [1, 1], "strides": [1, 1], "padding": "same", "data_format": "channels_last", "dilation_rate": [1, 1], "groups": 1, "activation": "linear", "use_bias": false, "kernel_initializer": {"class_name": "VarianceScaling", "config": {"scale": 2.0, "mode": "fan_out", "distribution": "truncated_normal", "seed": null}}, "bias_initializer": {"class_name": "Zeros", "config": {}}, "kernel_regularizer": null, "bias_regularizer": null, "activity_regularizer": null, "kernel_constraint": null, "bias_constraint": null}, "build_config": {"input_shape": [null, 8, 8, 96]}, "name": "block5a_expand_conv", "inbound_nodes": [{"args": [{"class_name": "__keras_tensor__", "config": {"shape": [null, 8, 8, 96], "dtype": "float32", "keras_history": ["block4c_add", 0, 0]}}], "kwargs": {}}]}, {"class_name": "BatchNormalization", "config": {"name": "block5a_expand_bn", "trainable": true, "dtype": {"class_name": "DTypePolicy", "config": {"name": "float32"}, "shared_object_id": 132965955152160}, "axis": 3, "momentum": 0.9, "epsilon": 0.001, "center": true, "scale": true, "beta_initializer": {"class_name": "Zeros", "config": {}}, "gamma_initializer": {"class_name": "Ones", "config": {}}, "moving_mean_initializer": {"class_name": "Zeros", "config": {}}, "moving_variance_initializer": {"class_name": "Ones", "config": {}}, "beta_regularizer": null, "gamma_regularizer": null, "beta_constraint": null, "gamma_constraint": null, "synchronized": false}, "build_config": {"input_shape": [null, 8, 8, 576]}, "name": "block5a_expand_bn", "inbound_nodes": [{"args": [{"class_name": "__keras_tensor__", "config": {"shape": [null, 8, 8, 576], "dtype": "float32", "keras_history": ["block5a_expand_conv", 0, 0]}}], "kwargs": {"mask": null}}]}, {"class_name": "Activation", "config": {"name": "block5a_expand_activation", "trainable": true, "dtype": {"class_name": "DTypePolicy", "config": {"name": "float32"}, "shared_object_id": 132965955152160}, "activation": "silu"}, "build_config": {"input_shape": [null, 8, 8, 576]}, "name": "block5a_expand_activation", "inbound_nodes": [{"args": [{"class_name": "__keras_tensor__", "config": {"shape": [null, 8, 8, 576], "dtype": "float32", "keras_history": ["block5a_expand_bn", 0, 0]}}], "kwargs": {}}]}, {"class_name": "DepthwiseConv2D", "config": {"name": "block5a_dwconv2", "trainable": true, "dtype": {"class_name": "DTypePolicy", "config": {"name": "float32"}, "shared_object_id": 132965955152160}, "depth_multiplier": 1, "kernel_size": [3, 3], "strides": [1, 1], "padding": "same", "data_format": "channels_last", "dilation_rate": [1, 1], "activation": "linear", "use_bias": false, "depthwise_initializer": {"class_name": "VarianceScaling", "config": {"scale": 2.0, "mode": "fan_out", "distribution": "truncated_normal", "seed": null}}, "bias_initializer": {"class_name": "Zeros", "config": {}}, "depthwise_regularizer": null, "bias_regularizer": null, "activity_regularizer": null, "depthwise_constraint": null, "bias_constraint": null}, "build_config": {"input_shape": [null, 8, 8, 576]}, "name": "block5a_dwconv2", "inbound_nodes": [{"args": [{"class_name": "__keras_tensor__", "config": {"shape": [null, 8, 8, 576], "dtype": "float32", "keras_history": ["block5a_expand_activation", 0, 0]}}], "kwargs": {}}]}, {"class_name": "BatchNormalization", "config": {"name": "block5a_bn", "trainable": true, "dtype": {"class_name": "DTypePolicy", "config": {"name": "float32"}, "shared_object_id": 132965955152160}, "axis": 3, "momentum": 0.9, "epsilon": 0.001, "center": true, "scale": true, "beta_initializer": {"class_name": "Zeros", "config": {}}, "gamma_initializer": {"class_name": "Ones", "config": {}}, "moving_mean_initializer": {"class_name": "Zeros", "config": {}}, "moving_variance_initializer": {"class_name": "Ones", "config": {}}, "beta_regularizer": null, "gamma_regularizer": null, "beta_constraint": null, "gamma_constraint": null, "synchronized": false}, "build_config": {"input_shape": [null, 8, 8, 576]}, "name": "block5a_bn", "inbound_nodes": [{"args": [{"class_name": "__keras_tensor__", "config": {"shape": [null, 8, 8, 576], "dtype": "float32", "keras_history": ["block5a_dwconv2", 0, 0]}}], "kwargs": {"mask": null}}]}, {"class_name": "Activation", "config": {"name": "block5a_activation", "trainable": true, "dtype": {"class_name": "DTypePolicy", "config": {"name": "float32"}, "shared_object_id": 132965955152160}, "activation": "silu"}, "build_config": {"input_shape": [null, 8, 8, 576]}, "name": "block5a_activation", "inbound_nodes": [{"args": [{"class_name": "__keras_tensor__", "config": {"shape": [null, 8, 8, 576], "dtype": "float32", "keras_history": ["block5a_bn", 0, 0]}}], "kwargs": {}}]}, {"class_name": "GlobalAveragePooling2D", "config": {"name": "block5a_se_squeeze", "trainable": true, "dtype": {"class_name": "DTypePolicy", "config": {"name": "float32"}, "shared_object_id": 132965955152160}, "data_format": "channels_last", "keepdims": false}, "build_config": {"input_shape": [null, 8, 8, 576]}, "name": "block5a_se_squeeze", "inbound_nodes": [{"args": [{"class_name": "__keras_tensor__", "config": {"shape": [null, 8, 8, 576], "dtype": "float32", "keras_history": ["block5a_activation", 0, 0]}}], "kwargs": {}}]}, {"class_name": "Reshape", "config": {"name": "block5a_se_reshape", "trainable": true, "dtype": {"class_name": "DTypePolicy", "config": {"name": "float32"}, "shared_object_id": 132965955152160}, "target_shape": [1, 1, 576]}, "build_config": {"input_shape": [null, 576]}, "name": "block5a_se_reshape", "inbound_nodes": [{"args": [{"class_name": "__keras_tensor__", "config": {"shape": [null, 576], "dtype": "float32", "keras_history": ["block5a_se_squeeze", 0, 0]}}], "kwargs": {}}]}, {"class_name": "Conv2D", "config": {"name": "block5a_se_reduce", "trainable": true, "dtype": {"class_name": "DTypePolicy", "config": {"name": "float32"}, "shared_object_id": 132965955152160}, "filters": 24, "kernel_size": [1, 1], "strides": [1, 1], "padding": "same", "data_format": "channels_last", "dilation_rate": [1, 1], "groups": 1, "activation": "silu", "use_bias": true, "kernel_initializer": {"class_name": "VarianceScaling", "config": {"scale": 2.0, "mode": "fan_out", "distribution": "truncated_normal", "seed": null}}, "bias_initializer": {"class_name": "Zeros", "config": {}}, "kernel_regularizer": null, "bias_regularizer": null, "activity_regularizer": null, "kernel_constraint": null, "bias_constraint": null}, "build_config": {"input_shape": [null, 1, 1, 576]}, "name": "block5a_se_reduce", "inbound_nodes": [{"args": [{"class_name": "__keras_tensor__", "config": {"shape": [null, 1, 1, 576], "dtype": "float32", "keras_history": ["block5a_se_reshape", 0, 0]}}], "kwargs": {}}]}, {"class_name": "Conv2D", "config": {"name": "block5a_se_expand", "trainable": true, "dtype": {"class_name": "DTypePolicy", "config": {"name": "float32"}, "shared_object_id": 132965955152160}, "filters": 576, "kernel_size": [1, 1], "strides": [1, 1], "padding": "same", "data_format": "channels_last", "dilation_rate": [1, 1], "groups": 1, "activation": "sigmoid", "use_bias": true, "kernel_initializer": {"class_name": "VarianceScaling", "config": {"scale": 2.0, "mode": "fan_out", "distribution": "truncated_normal", "seed": null}}, "bias_initializer": {"class_name": "Zeros", "config": {}}, "kernel_regularizer": null, "bias_regularizer": null, "activity_regularizer": null, "kernel_constraint": null, "bias_constraint": null}, "build_config": {"input_shape": [null, 1, 1, 24]}, "name": "block5a_se_expand", "inbound_nodes": [{"args": [{"class_name": "__keras_tensor__", "config": {"shape": [null, 1, 1, 24], "dtype": "float32", "keras_history": ["block5a_se_reduce", 0, 0]}}], "kwargs": {}}]}, {"class_name": "Multiply", "config": {"name": "block5a_se_excite", "trainable": true, "dtype": {"class_name": "DTypePolicy", "config": {"name": "float32"}, "shared_object_id": 132965955152160}}, "build_config": {"input_shape": [[null, 8, 8, 576], [null, 1, 1, 576]]}, "name": "block5a_se_excite", "inbound_nodes": [{"args": [[{"class_name": "__keras_tensor__", "config": {"shape": [null, 8, 8, 576], "dtype": "float32", "keras_history": ["block5a_activation", 0, 0]}}, {"class_name": "__keras_tensor__", "config": {"shape": [null, 1, 1, 576], "dtype": "float32", "keras_history": ["block5a_se_expand", 0, 0]}}]], "kwargs": {}}]}, {"class_name": "Conv2D", "config": {"name": "block5a_project_conv", "trainable": true, "dtype": {"class_name": "DTypePolicy", "config": {"name": "float32"}, "shared_object_id": 132965955152160}, "filters": 112, "kernel_size": [1, 1], "strides": [1, 1], "padding": "same", "data_format": "channels_last", "dilation_rate": [1, 1], "groups": 1, "activation": "linear", "use_bias": false, "kernel_initializer": {"class_name": "VarianceScaling", "config": {"scale": 2.0, "mode": "fan_out", "distribution": "truncated_normal", "seed": null}}, "bias_initializer": {"class_name": "Zeros", "config": {}}, "kernel_regularizer": null, "bias_regularizer": null, "activity_regularizer": null, "kernel_constraint": null, "bias_constraint": null}, "build_config": {"input_shape": [null, 8, 8, 576]}, "name": "block5a_project_conv", "inbound_nodes": [{"args": [{"class_name": "__keras_tensor__", "config": {"shape": [null, 8, 8, 576], "dtype": "float32", "keras_history": ["block5a_se_excite", 0, 0]}}], "kwargs": {}}]}, {"class_name": "BatchNormalization", "config": {"name": "block5a_project_bn", "trainable": true, "dtype": {"class_name": "DTypePolicy", "config": {"name": "float32"}, "shared_object_id": 132965955152160}, "axis": 3, "momentum": 0.9, "epsilon": 0.001, "center": true, "scale": true, "beta_initializer": {"class_name": "Zeros", "config": {}}, "gamma_initializer": {"class_name": "Ones", "config": {}}, "moving_mean_initializer": {"class_name": "Zeros", "config": {}}, "moving_variance_initializer": {"class_name": "Ones", "config": {}}, "beta_regularizer": null, "gamma_regularizer": null, "beta_constraint": null, "gamma_constraint": null, "synchronized": false}, "build_config": {"input_shape": [null, 8, 8, 112]}, "name": "block5a_project_bn", "inbound_nodes": [{"args": [{"class_name": "__keras_tensor__", "config": {"shape": [null, 8, 8, 112], "dtype": "float32", "keras_history": ["block5a_project_conv", 0, 0]}}], "kwargs": {"mask": null}}]}, {"class_name": "Conv2D", "config": {"name": "block5b_expand_conv", "trainable": true, "dtype": {"class_name": "DTypePolicy", "config": {"name": "float32"}, "shared_object_id": 132965955152160}, "filters": 672, "kernel_size": [1, 1], "strides": [1, 1], "padding": "same", "data_format": "channels_last", "dilation_rate": [1, 1], "groups": 1, "activation": "linear", "use_bias": false, "kernel_initializer": {"class_name": "VarianceScaling", "config": {"scale": 2.0, "mode": "fan_out", "distribution": "truncated_normal", "seed": null}}, "bias_initializer": {"class_name": "Zeros", "config": {}}, "kernel_regularizer": null, "bias_regularizer": null, "activity_regularizer": null, "kernel_constraint": null, "bias_constraint": null}, "build_config": {"input_shape": [null, 8, 8, 112]}, "name": "block5b_expand_conv", "inbound_nodes": [{"args": [{"class_name": "__keras_tensor__", "config": {"shape": [null, 8, 8, 112], "dtype": "float32", "keras_history": ["block5a_project_bn", 0, 0]}}], "kwargs": {}}]}, {"class_name": "BatchNormalization", "config": {"name": "block5b_expand_bn", "trainable": true, "dtype": {"class_name": "DTypePolicy", "config": {"name": "float32"}, "shared_object_id": 132965955152160}, "axis": 3, "momentum": 0.9, "epsilon": 0.001, "center": true, "scale": true, "beta_initializer": {"class_name": "Zeros", "config": {}}, "gamma_initializer": {"class_name": "Ones", "config": {}}, "moving_mean_initializer": {"class_name": "Zeros", "config": {}}, "moving_variance_initializer": {"class_name": "Ones", "config": {}}, "beta_regularizer": null, "gamma_regularizer": null, "beta_constraint": null, "gamma_constraint": null, "synchronized": false}, "build_config": {"input_shape": [null, 8, 8, 672]}, "name": "block5b_expand_bn", "inbound_nodes": [{"args": [{"class_name": "__keras_tensor__", "config": {"shape": [null, 8, 8, 672], "dtype": "float32", "keras_history": ["block5b_expand_conv", 0, 0]}}], "kwargs": {"mask": null}}]}, {"class_name": "Activation", "config": {"name": "block5b_expand_activation", "trainable": true, "dtype": {"class_name": "DTypePolicy", "config": {"name": "float32"}, "shared_object_id": 132965955152160}, "activation": "silu"}, "build_config": {"input_shape": [null, 8, 8, 672]}, "name": "block5b_expand_activation", "inbound_nodes": [{"args": [{"class_name": "__keras_tensor__", "config": {"shape": [null, 8, 8, 672], "dtype": "float32", "keras_history": ["block5b_expand_bn", 0, 0]}}], "kwargs": {}}]}, {"class_name": "DepthwiseConv2D", "config": {"name": "block5b_dwconv2", "trainable": true, "dtype": {"class_name": "DTypePolicy", "config": {"name": "float32"}, "shared_object_id": 132965955152160}, "depth_multiplier": 1, "kernel_size": [3, 3], "strides": [1, 1], "padding": "same", "data_format": "channels_last", "dilation_rate": [1, 1], "activation": "linear", "use_bias": false, "depthwise_initializer": {"class_name": "VarianceScaling", "config": {"scale": 2.0, "mode": "fan_out", "distribution": "truncated_normal", "seed": null}}, "bias_initializer": {"class_name": "Zeros", "config": {}}, "depthwise_regularizer": null, "bias_regularizer": null, "activity_regularizer": null, "depthwise_constraint": null, "bias_constraint": null}, "build_config": {"input_shape": [null, 8, 8, 672]}, "name": "block5b_dwconv2", "inbound_nodes": [{"args": [{"class_name": "__keras_tensor__", "config": {"shape": [null, 8, 8, 672], "dtype": "float32", "keras_history": ["block5b_expand_activation", 0, 0]}}], "kwargs": {}}]}, {"class_name": "BatchNormalization", "config": {"name": "block5b_bn", "trainable": true, "dtype": {"class_name": "DTypePolicy", "config": {"name": "float32"}, "shared_object_id": 132965955152160}, "axis": 3, "momentum": 0.9, "epsilon": 0.001, "center": true, "scale": true, "beta_initializer": {"class_name": "Zeros", "config": {}}, "gamma_initializer": {"class_name": "Ones", "config": {}}, "moving_mean_initializer": {"class_name": "Zeros", "config": {}}, "moving_variance_initializer": {"class_name": "Ones", "config": {}}, "beta_regularizer": null, "gamma_regularizer": null, "beta_constraint": null, "gamma_constraint": null, "synchronized": false}, "build_config": {"input_shape": [null, 8, 8, 672]}, "name": "block5b_bn", "inbound_nodes": [{"args": [{"class_name": "__keras_tensor__", "config": {"shape": [null, 8, 8, 672], "dtype": "float32", "keras_history": ["block5b_dwconv2", 0, 0]}}], "kwargs": {"mask": null}}]}, {"class_name": "Activation", "config": {"name": "block5b_activation", "trainable": true, "dtype": {"class_name": "DTypePolicy", "config": {"name": "float32"}, "shared_object_id": 132965955152160}, "activation": "silu"}, "build_config": {"input_shape": [null, 8, 8, 672]}, "name": "block5b_activation", "inbound_nodes": [{"args": [{"class_name": "__keras_tensor__", "config": {"shape": [null, 8, 8, 672], "dtype": "float32", "keras_history": ["block5b_bn", 0, 0]}}], "kwargs": {}}]}, {"class_name": "GlobalAveragePooling2D", "config": {"name": "block5b_se_squeeze", "trainable": true, "dtype": {"class_name": "DTypePolicy", "config": {"name": "float32"}, "shared_object_id": 132965955152160}, "data_format": "channels_last", "keepdims": false}, "build_config": {"input_shape": [null, 8, 8, 672]}, "name": "block5b_se_squeeze", "inbound_nodes": [{"args": [{"class_name": "__keras_tensor__", "config": {"shape": [null, 8, 8, 672], "dtype": "float32", "keras_history": ["block5b_activation", 0, 0]}}], "kwargs": {}}]}, {"class_name": "Reshape", "config": {"name": "block5b_se_reshape", "trainable": true, "dtype": {"class_name": "DTypePolicy", "config": {"name": "float32"}, "shared_object_id": 132965955152160}, "target_shape": [1, 1, 672]}, "build_config": {"input_shape": [null, 672]}, "name": "block5b_se_reshape", "inbound_nodes": [{"args": [{"class_name": "__keras_tensor__", "config": {"shape": [null, 672], "dtype": "float32", "keras_history": ["block5b_se_squeeze", 0, 0]}}], "kwargs": {}}]}, {"class_name": "Conv2D", "config": {"name": "block5b_se_reduce", "trainable": true, "dtype": {"class_name": "DTypePolicy", "config": {"name": "float32"}, "shared_object_id": 132965955152160}, "filters": 28, "kernel_size": [1, 1], "strides": [1, 1], "padding": "same", "data_format": "channels_last", "dilation_rate": [1, 1], "groups": 1, "activation": "silu", "use_bias": true, "kernel_initializer": {"class_name": "VarianceScaling", "config": {"scale": 2.0, "mode": "fan_out", "distribution": "truncated_normal", "seed": null}}, "bias_initializer": {"class_name": "Zeros", "config": {}}, "kernel_regularizer": null, "bias_regularizer": null, "activity_regularizer": null, "kernel_constraint": null, "bias_constraint": null}, "build_config": {"input_shape": [null, 1, 1, 672]}, "name": "block5b_se_reduce", "inbound_nodes": [{"args": [{"class_name": "__keras_tensor__", "config": {"shape": [null, 1, 1, 672], "dtype": "float32", "keras_history": ["block5b_se_reshape", 0, 0]}}], "kwargs": {}}]}, {"class_name": "Conv2D", "config": {"name": "block5b_se_expand", "trainable": true, "dtype": {"class_name": "DTypePolicy", "config": {"name": "float32"}, "shared_object_id": 132965955152160}, "filters": 672, "kernel_size": [1, 1], "strides": [1, 1], "padding": "same", "data_format": "channels_last", "dilation_rate": [1, 1], "groups": 1, "activation": "sigmoid", "use_bias": true, "kernel_initializer": {"class_name": "VarianceScaling", "config": {"scale": 2.0, "mode": "fan_out", "distribution": "truncated_normal", "seed": null}}, "bias_initializer": {"class_name": "Zeros", "config": {}}, "kernel_regularizer": null, "bias_regularizer": null, "activity_regularizer": null, "kernel_constraint": null, "bias_constraint": null}, "build_config": {"input_shape": [null, 1, 1, 28]}, "name": "block5b_se_expand", "inbound_nodes": [{"args": [{"class_name": "__keras_tensor__", "config": {"shape": [null, 1, 1, 28], "dtype": "float32", "keras_history": ["block5b_se_reduce", 0, 0]}}], "kwargs": {}}]}, {"class_name": "Multiply", "config": {"name": "block5b_se_excite", "trainable": true, "dtype": {"class_name": "DTypePolicy", "config": {"name": "float32"}, "shared_object_id": 132965955152160}}, "build_config": {"input_shape": [[null, 8, 8, 672], [null, 1, 1, 672]]}, "name": "block5b_se_excite", "inbound_nodes": [{"args": [[{"class_name": "__keras_tensor__", "config": {"shape": [null, 8, 8, 672], "dtype": "float32", "keras_history": ["block5b_activation", 0, 0]}}, {"class_name": "__keras_tensor__", "config": {"shape": [null, 1, 1, 672], "dtype": "float32", "keras_history": ["block5b_se_expand", 0, 0]}}]], "kwargs": {}}]}, {"class_name": "Conv2D", "config": {"name": "block5b_project_conv", "trainable": true, "dtype": {"class_name": "DTypePolicy", "config": {"name": "float32"}, "shared_object_id": 132965955152160}, "filters": 112, "kernel_size": [1, 1], "strides": [1, 1], "padding": "same", "data_format": "channels_last", "dilation_rate": [1, 1], "groups": 1, "activation": "linear", "use_bias": false, "kernel_initializer": {"class_name": "VarianceScaling", "config": {"scale": 2.0, "mode": "fan_out", "distribution": "truncated_normal", "seed": null}}, "bias_initializer": {"class_name": "Zeros", "config": {}}, "kernel_regularizer": null, "bias_regularizer": null, "activity_regularizer": null, "kernel_constraint": null, "bias_constraint": null}, "build_config": {"input_shape": [null, 8, 8, 672]}, "name": "block5b_project_conv", "inbound_nodes": [{"args": [{"class_name": "__keras_tensor__", "config": {"shape": [null, 8, 8, 672], "dtype": "float32", "keras_history": ["block5b_se_excite", 0, 0]}}], "kwargs": {}}]}, {"class_name": "BatchNormalization", "config": {"name": "block5b_project_bn", "trainable": true, "dtype": {"class_name": "DTypePolicy", "config": {"name": "float32"}, "shared_object_id": 132965955152160}, "axis": 3, "momentum": 0.9, "epsilon": 0.001, "center": true, "scale": true, "beta_initializer": {"class_name": "Zeros", "config": {}}, "gamma_initializer": {"class_name": "Ones", "config": {}}, "moving_mean_initializer": {"class_name": "Zeros", "config": {}}, "moving_variance_initializer": {"class_name": "Ones", "config": {}}, "beta_regularizer": null, "gamma_regularizer": null, "beta_constraint": null, "gamma_constraint": null, "synchronized": false}, "build_config": {"input_shape": [null, 8, 8, 112]}, "name": "block5b_project_bn", "inbound_nodes": [{"args": [{"class_name": "__keras_tensor__", "config": {"shape": [null, 8, 8, 112], "dtype": "float32", "keras_history": ["block5b_project_conv", 0, 0]}}], "kwargs": {"mask": null}}]}, {"class_name": "Dropout", "config": {"name": "block5b_drop", "trainable": true, "dtype": {"class_name": "DTypePolicy", "config": {"name": "float32"}, "shared_object_id": 132965955152160}, "rate": 0.08571428571428572, "seed": null, "noise_shape": [null, 1, 1, 1]}, "build_config": {"input_shape": [null, 8, 8, 112]}, "name": "block5b_drop", "inbound_nodes": [{"args": [{"class_name": "__keras_tensor__", "config": {"shape": [null, 8, 8, 112], "dtype": "float32", "keras_history": ["block5b_project_bn", 0, 0]}}], "kwargs": {"training": false}}]}, {"class_name": "Add", "config": {"name": "block5b_add", "trainable": true, "dtype": {"class_name": "DTypePolicy", "config": {"name": "float32"}, "shared_object_id": 132965955152160}}, "build_config": {"input_shape": [[null, 8, 8, 112], [null, 8, 8, 112]]}, "name": "block5b_add", "inbound_nodes": [{"args": [[{"class_name": "__keras_tensor__", "config": {"shape": [null, 8, 8, 112], "dtype": "float32", "keras_history": ["block5b_drop", 0, 0]}}, {"class_name": "__keras_tensor__", "config": {"shape": [null, 8, 8, 112], "dtype": "float32", "keras_history": ["block5a_project_bn", 0, 0]}}]], "kwargs": {}}]}, {"class_name": "Conv2D", "config": {"name": "block5c_expand_conv", "trainable": true, "dtype": {"class_name": "DTypePolicy", "config": {"name": "float32"}, "shared_object_id": 132965955152160}, "filters": 672, "kernel_size": [1, 1], "strides": [1, 1], "padding": "same", "data_format": "channels_last", "dilation_rate": [1, 1], "groups": 1, "activation": "linear", "use_bias": false, "kernel_initializer": {"class_name": "VarianceScaling", "config": {"scale": 2.0, "mode": "fan_out", "distribution": "truncated_normal", "seed": null}}, "bias_initializer": {"class_name": "Zeros", "config": {}}, "kernel_regularizer": null, "bias_regularizer": null, "activity_regularizer": null, "kernel_constraint": null, "bias_constraint": null}, "build_config": {"input_shape": [null, 8, 8, 112]}, "name": "block5c_expand_conv", "inbound_nodes": [{"args": [{"class_name": "__keras_tensor__", "config": {"shape": [null, 8, 8, 112], "dtype": "float32", "keras_history": ["block5b_add", 0, 0]}}], "kwargs": {}}]}, {"class_name": "BatchNormalization", "config": {"name": "block5c_expand_bn", "trainable": true, "dtype": {"class_name": "DTypePolicy", "config": {"name": "float32"}, "shared_object_id": 132965955152160}, "axis": 3, "momentum": 0.9, "epsilon": 0.001, "center": true, "scale": true, "beta_initializer": {"class_name": "Zeros", "config": {}}, "gamma_initializer": {"class_name": "Ones", "config": {}}, "moving_mean_initializer": {"class_name": "Zeros", "config": {}}, "moving_variance_initializer": {"class_name": "Ones", "config": {}}, "beta_regularizer": null, "gamma_regularizer": null, "beta_constraint": null, "gamma_constraint": null, "synchronized": false}, "build_config": {"input_shape": [null, 8, 8, 672]}, "name": "block5c_expand_bn", "inbound_nodes": [{"args": [{"class_name": "__keras_tensor__", "config": {"shape": [null, 8, 8, 672], "dtype": "float32", "keras_history": ["block5c_expand_conv", 0, 0]}}], "kwargs": {"mask": null}}]}, {"class_name": "Activation", "config": {"name": "block5c_expand_activation", "trainable": true, "dtype": {"class_name": "DTypePolicy", "config": {"name": "float32"}, "shared_object_id": 132965955152160}, "activation": "silu"}, "build_config": {"input_shape": [null, 8, 8, 672]}, "name": "block5c_expand_activation", "inbound_nodes": [{"args": [{"class_name": "__keras_tensor__", "config": {"shape": [null, 8, 8, 672], "dtype": "float32", "keras_history": ["block5c_expand_bn", 0, 0]}}], "kwargs": {}}]}, {"class_name": "DepthwiseConv2D", "config": {"name": "block5c_dwconv2", "trainable": true, "dtype": {"class_name": "DTypePolicy", "config": {"name": "float32"}, "shared_object_id": 132965955152160}, "depth_multiplier": 1, "kernel_size": [3, 3], "strides": [1, 1], "padding": "same", "data_format": "channels_last", "dilation_rate": [1, 1], "activation": "linear", "use_bias": false, "depthwise_initializer": {"class_name": "VarianceScaling", "config": {"scale": 2.0, "mode": "fan_out", "distribution": "truncated_normal", "seed": null}}, "bias_initializer": {"class_name": "Zeros", "config": {}}, "depthwise_regularizer": null, "bias_regularizer": null, "activity_regularizer": null, "depthwise_constraint": null, "bias_constraint": null}, "build_config": {"input_shape": [null, 8, 8, 672]}, "name": "block5c_dwconv2", "inbound_nodes": [{"args": [{"class_name": "__keras_tensor__", "config": {"shape": [null, 8, 8, 672], "dtype": "float32", "keras_history": ["block5c_expand_activation", 0, 0]}}], "kwargs": {}}]}, {"class_name": "BatchNormalization", "config": {"name": "block5c_bn", "trainable": true, "dtype": {"class_name": "DTypePolicy", "config": {"name": "float32"}, "shared_object_id": 132965955152160}, "axis": 3, "momentum": 0.9, "epsilon": 0.001, "center": true, "scale": true, "beta_initializer": {"class_name": "Zeros", "config": {}}, "gamma_initializer": {"class_name": "Ones", "config": {}}, "moving_mean_initializer": {"class_name": "Zeros", "config": {}}, "moving_variance_initializer": {"class_name": "Ones", "config": {}}, "beta_regularizer": null, "gamma_regularizer": null, "beta_constraint": null, "gamma_constraint": null, "synchronized": false}, "build_config": {"input_shape": [null, 8, 8, 672]}, "name": "block5c_bn", "inbound_nodes": [{"args": [{"class_name": "__keras_tensor__", "config": {"shape": [null, 8, 8, 672], "dtype": "float32", "keras_history": ["block5c_dwconv2", 0, 0]}}], "kwargs": {"mask": null}}]}, {"class_name": "Activation", "config": {"name": "block5c_activation", "trainable": true, "dtype": {"class_name": "DTypePolicy", "config": {"name": "float32"}, "shared_object_id": 132965955152160}, "activation": "silu"}, "build_config": {"input_shape": [null, 8, 8, 672]}, "name": "block5c_activation", "inbound_nodes": [{"args": [{"class_name": "__keras_tensor__", "config": {"shape": [null, 8, 8, 672], "dtype": "float32", "keras_history": ["block5c_bn", 0, 0]}}], "kwargs": {}}]}, {"class_name": "GlobalAveragePooling2D", "config": {"name": "block5c_se_squeeze", "trainable": true, "dtype": {"class_name": "DTypePolicy", "config": {"name": "float32"}, "shared_object_id": 132965955152160}, "data_format": "channels_last", "keepdims": false}, "build_config": {"input_shape": [null, 8, 8, 672]}, "name": "block5c_se_squeeze", "inbound_nodes": [{"args": [{"class_name": "__keras_tensor__", "config": {"shape": [null, 8, 8, 672], "dtype": "float32", "keras_history": ["block5c_activation", 0, 0]}}], "kwargs": {}}]}, {"class_name": "Reshape", "config": {"name": "block5c_se_reshape", "trainable": true, "dtype": {"class_name": "DTypePolicy", "config": {"name": "float32"}, "shared_object_id": 132965955152160}, "target_shape": [1, 1, 672]}, "build_config": {"input_shape": [null, 672]}, "name": "block5c_se_reshape", "inbound_nodes": [{"args": [{"class_name": "__keras_tensor__", "config": {"shape": [null, 672], "dtype": "float32", "keras_history": ["block5c_se_squeeze", 0, 0]}}], "kwargs": {}}]}, {"class_name": "Conv2D", "config": {"name": "block5c_se_reduce", "trainable": true, "dtype": {"class_name": "DTypePolicy", "config": {"name": "float32"}, "shared_object_id": 132965955152160}, "filters": 28, "kernel_size": [1, 1], "strides": [1, 1], "padding": "same", "data_format": "channels_last", "dilation_rate": [1, 1], "groups": 1, "activation": "silu", "use_bias": true, "kernel_initializer": {"class_name": "VarianceScaling", "config": {"scale": 2.0, "mode": "fan_out", "distribution": "truncated_normal", "seed": null}}, "bias_initializer": {"class_name": "Zeros", "config": {}}, "kernel_regularizer": null, "bias_regularizer": null, "activity_regularizer": null, "kernel_constraint": null, "bias_constraint": null}, "build_config": {"input_shape": [null, 1, 1, 672]}, "name": "block5c_se_reduce", "inbound_nodes": [{"args": [{"class_name": "__keras_tensor__", "config": {"shape": [null, 1, 1, 672], "dtype": "float32", "keras_history": ["block5c_se_reshape", 0, 0]}}], "kwargs": {}}]}, {"class_name": "Conv2D", "config": {"name": "block5c_se_expand", "trainable": true, "dtype": {"class_name": "DTypePolicy", "config": {"name": "float32"}, "shared_object_id": 132965955152160}, "filters": 672, "kernel_size": [1, 1], "strides": [1, 1], "padding": "same", "data_format": "channels_last", "dilation_rate": [1, 1], "groups": 1, "activation": "sigmoid", "use_bias": true, "kernel_initializer": {"class_name": "VarianceScaling", "config": {"scale": 2.0, "mode": "fan_out", "distribution": "truncated_normal", "seed": null}}, "bias_initializer": {"class_name": "Zeros", "config": {}}, "kernel_regularizer": null, "bias_regularizer": null, "activity_regularizer": null, "kernel_constraint": null, "bias_constraint": null}, "build_config": {"input_shape": [null, 1, 1, 28]}, "name": "block5c_se_expand", "inbound_nodes": [{"args": [{"class_name": "__keras_tensor__", "config": {"shape": [null, 1, 1, 28], "dtype": "float32", "keras_history": ["block5c_se_reduce", 0, 0]}}], "kwargs": {}}]}, {"class_name": "Multiply", "config": {"name": "block5c_se_excite", "trainable": true, "dtype": {"class_name": "DTypePolicy", "config": {"name": "float32"}, "shared_object_id": 132965955152160}}, "build_config": {"input_shape": [[null, 8, 8, 672], [null, 1, 1, 672]]}, "name": "block5c_se_excite", "inbound_nodes": [{"args": [[{"class_name": "__keras_tensor__", "config": {"shape": [null, 8, 8, 672], "dtype": "float32", "keras_history": ["block5c_activation", 0, 0]}}, {"class_name": "__keras_tensor__", "config": {"shape": [null, 1, 1, 672], "dtype": "float32", "keras_history": ["block5c_se_expand", 0, 0]}}]], "kwargs": {}}]}, {"class_name": "Conv2D", "config": {"name": "block5c_project_conv", "trainable": true, "dtype": {"class_name": "DTypePolicy", "config": {"name": "float32"}, "shared_object_id": 132965955152160}, "filters": 112, "kernel_size": [1, 1], "strides": [1, 1], "padding": "same", "data_format": "channels_last", "dilation_rate": [1, 1], "groups": 1, "activation": "linear", "use_bias": false, "kernel_initializer": {"class_name": "VarianceScaling", "config": {"scale": 2.0, "mode": "fan_out", "distribution": "truncated_normal", "seed": null}}, "bias_initializer": {"class_name": "Zeros", "config": {}}, "kernel_regularizer": null, "bias_regularizer": null, "activity_regularizer": null, "kernel_constraint": null, "bias_constraint": null}, "build_config": {"input_shape": [null, 8, 8, 672]}, "name": "block5c_project_conv", "inbound_nodes": [{"args": [{"class_name": "__keras_tensor__", "config": {"shape": [null, 8, 8, 672], "dtype": "float32", "keras_history": ["block5c_se_excite", 0, 0]}}], "kwargs": {}}]}, {"class_name": "BatchNormalization", "config": {"name": "block5c_project_bn", "trainable": true, "dtype": {"class_name": "DTypePolicy", "config": {"name": "float32"}, "shared_object_id": 132965955152160}, "axis": 3, "momentum": 0.9, "epsilon": 0.001, "center": true, "scale": true, "beta_initializer": {"class_name": "Zeros", "config": {}}, "gamma_initializer": {"class_name": "Ones", "config": {}}, "moving_mean_initializer": {"class_name": "Zeros", "config": {}}, "moving_variance_initializer": {"class_name": "Ones", "config": {}}, "beta_regularizer": null, "gamma_regularizer": null, "beta_constraint": null, "gamma_constraint": null, "synchronized": false}, "build_config": {"input_shape": [null, 8, 8, 112]}, "name": "block5c_project_bn", "inbound_nodes": [{"args": [{"class_name": "__keras_tensor__", "config": {"shape": [null, 8, 8, 112], "dtype": "float32", "keras_history": ["block5c_project_conv", 0, 0]}}], "kwargs": {"mask": null}}]}, {"class_name": "Dropout", "config": {"name": "block5c_drop", "trainable": true, "dtype": {"class_name": "DTypePolicy", "config": {"name": "float32"}, "shared_object_id": 132965955152160}, "rate": 0.09523809523809523, "seed": null, "noise_shape": [null, 1, 1, 1]}, "build_config": {"input_shape": [null, 8, 8, 112]}, "name": "block5c_drop", "inbound_nodes": [{"args": [{"class_name": "__keras_tensor__", "config": {"shape": [null, 8, 8, 112], "dtype": "float32", "keras_history": ["block5c_project_bn", 0, 0]}}], "kwargs": {"training": false}}]}, {"class_name": "Add", "config": {"name": "block5c_add", "trainable": true, "dtype": {"class_name": "DTypePolicy", "config": {"name": "float32"}, "shared_object_id": 132965955152160}}, "build_config": {"input_shape": [[null, 8, 8, 112], [null, 8, 8, 112]]}, "name": "block5c_add", "inbound_nodes": [{"args": [[{"class_name": "__keras_tensor__", "config": {"shape": [null, 8, 8, 112], "dtype": "float32", "keras_history": ["block5c_drop", 0, 0]}}, {"class_name": "__keras_tensor__", "config": {"shape": [null, 8, 8, 112], "dtype": "float32", "keras_history": ["block5b_add", 0, 0]}}]], "kwargs": {}}]}, {"class_name": "Conv2D", "config": {"name": "block5d_expand_conv", "trainable": true, "dtype": {"class_name": "DTypePolicy", "config": {"name": "float32"}, "shared_object_id": 132965955152160}, "filters": 672, "kernel_size": [1, 1], "strides": [1, 1], "padding": "same", "data_format": "channels_last", "dilation_rate": [1, 1], "groups": 1, "activation": "linear", "use_bias": false, "kernel_initializer": {"class_name": "VarianceScaling", "config": {"scale": 2.0, "mode": "fan_out", "distribution": "truncated_normal", "seed": null}}, "bias_initializer": {"class_name": "Zeros", "config": {}}, "kernel_regularizer": null, "bias_regularizer": null, "activity_regularizer": null, "kernel_constraint": null, "bias_constraint": null}, "build_config": {"input_shape": [null, 8, 8, 112]}, "name": "block5d_expand_conv", "inbound_nodes": [{"args": [{"class_name": "__keras_tensor__", "config": {"shape": [null, 8, 8, 112], "dtype": "float32", "keras_history": ["block5c_add", 0, 0]}}], "kwargs": {}}]}, {"class_name": "BatchNormalization", "config": {"name": "block5d_expand_bn", "trainable": true, "dtype": {"class_name": "DTypePolicy", "config": {"name": "float32"}, "shared_object_id": 132965955152160}, "axis": 3, "momentum": 0.9, "epsilon": 0.001, "center": true, "scale": true, "beta_initializer": {"class_name": "Zeros", "config": {}}, "gamma_initializer": {"class_name": "Ones", "config": {}}, "moving_mean_initializer": {"class_name": "Zeros", "config": {}}, "moving_variance_initializer": {"class_name": "Ones", "config": {}}, "beta_regularizer": null, "gamma_regularizer": null, "beta_constraint": null, "gamma_constraint": null, "synchronized": false}, "build_config": {"input_shape": [null, 8, 8, 672]}, "name": "block5d_expand_bn", "inbound_nodes": [{"args": [{"class_name": "__keras_tensor__", "config": {"shape": [null, 8, 8, 672], "dtype": "float32", "keras_history": ["block5d_expand_conv", 0, 0]}}], "kwargs": {"mask": null}}]}, {"class_name": "Activation", "config": {"name": "block5d_expand_activation", "trainable": true, "dtype": {"class_name": "DTypePolicy", "config": {"name": "float32"}, "shared_object_id": 132965955152160}, "activation": "silu"}, "build_config": {"input_shape": [null, 8, 8, 672]}, "name": "block5d_expand_activation", "inbound_nodes": [{"args": [{"class_name": "__keras_tensor__", "config": {"shape": [null, 8, 8, 672], "dtype": "float32", "keras_history": ["block5d_expand_bn", 0, 0]}}], "kwargs": {}}]}, {"class_name": "DepthwiseConv2D", "config": {"name": "block5d_dwconv2", "trainable": true, "dtype": {"class_name": "DTypePolicy", "config": {"name": "float32"}, "shared_object_id": 132965955152160}, "depth_multiplier": 1, "kernel_size": [3, 3], "strides": [1, 1], "padding": "same", "data_format": "channels_last", "dilation_rate": [1, 1], "activation": "linear", "use_bias": false, "depthwise_initializer": {"class_name": "VarianceScaling", "config": {"scale": 2.0, "mode": "fan_out", "distribution": "truncated_normal", "seed": null}}, "bias_initializer": {"class_name": "Zeros", "config": {}}, "depthwise_regularizer": null, "bias_regularizer": null, "activity_regularizer": null, "depthwise_constraint": null, "bias_constraint": null}, "build_config": {"input_shape": [null, 8, 8, 672]}, "name": "block5d_dwconv2", "inbound_nodes": [{"args": [{"class_name": "__keras_tensor__", "config": {"shape": [null, 8, 8, 672], "dtype": "float32", "keras_history": ["block5d_expand_activation", 0, 0]}}], "kwargs": {}}]}, {"class_name": "BatchNormalization", "config": {"name": "block5d_bn", "trainable": true, "dtype": {"class_name": "DTypePolicy", "config": {"name": "float32"}, "shared_object_id": 132965955152160}, "axis": 3, "momentum": 0.9, "epsilon": 0.001, "center": true, "scale": true, "beta_initializer": {"class_name": "Zeros", "config": {}}, "gamma_initializer": {"class_name": "Ones", "config": {}}, "moving_mean_initializer": {"class_name": "Zeros", "config": {}}, "moving_variance_initializer": {"class_name": "Ones", "config": {}}, "beta_regularizer": null, "gamma_regularizer": null, "beta_constraint": null, "gamma_constraint": null, "synchronized": false}, "build_config": {"input_shape": [null, 8, 8, 672]}, "name": "block5d_bn", "inbound_nodes": [{"args": [{"class_name": "__keras_tensor__", "config": {"shape": [null, 8, 8, 672], "dtype": "float32", "keras_history": ["block5d_dwconv2", 0, 0]}}], "kwargs": {"mask": null}}]}, {"class_name": "Activation", "config": {"name": "block5d_activation", "trainable": true, "dtype": {"class_name": "DTypePolicy", "config": {"name": "float32"}, "shared_object_id": 132965955152160}, "activation": "silu"}, "build_config": {"input_shape": [null, 8, 8, 672]}, "name": "block5d_activation", "inbound_nodes": [{"args": [{"class_name": "__keras_tensor__", "config": {"shape": [null, 8, 8, 672], "dtype": "float32", "keras_history": ["block5d_bn", 0, 0]}}], "kwargs": {}}]}, {"class_name": "GlobalAveragePooling2D", "config": {"name": "block5d_se_squeeze", "trainable": true, "dtype": {"class_name": "DTypePolicy", "config": {"name": "float32"}, "shared_object_id": 132965955152160}, "data_format": "channels_last", "keepdims": false}, "build_config": {"input_shape": [null, 8, 8, 672]}, "name": "block5d_se_squeeze", "inbound_nodes": [{"args": [{"class_name": "__keras_tensor__", "config": {"shape": [null, 8, 8, 672], "dtype": "float32", "keras_history": ["block5d_activation", 0, 0]}}], "kwargs": {}}]}, {"class_name": "Reshape", "config": {"name": "block5d_se_reshape", "trainable": true, "dtype": {"class_name": "DTypePolicy", "config": {"name": "float32"}, "shared_object_id": 132965955152160}, "target_shape": [1, 1, 672]}, "build_config": {"input_shape": [null, 672]}, "name": "block5d_se_reshape", "inbound_nodes": [{"args": [{"class_name": "__keras_tensor__", "config": {"shape": [null, 672], "dtype": "float32", "keras_history": ["block5d_se_squeeze", 0, 0]}}], "kwargs": {}}]}, {"class_name": "Conv2D", "config": {"name": "block5d_se_reduce", "trainable": true, "dtype": {"class_name": "DTypePolicy", "config": {"name": "float32"}, "shared_object_id": 132965955152160}, "filters": 28, "kernel_size": [1, 1], "strides": [1, 1], "padding": "same", "data_format": "channels_last", "dilation_rate": [1, 1], "groups": 1, "activation": "silu", "use_bias": true, "kernel_initializer": {"class_name": "VarianceScaling", "config": {"scale": 2.0, "mode": "fan_out", "distribution": "truncated_normal", "seed": null}}, "bias_initializer": {"class_name": "Zeros", "config": {}}, "kernel_regularizer": null, "bias_regularizer": null, "activity_regularizer": null, "kernel_constraint": null, "bias_constraint": null}, "build_config": {"input_shape": [null, 1, 1, 672]}, "name": "block5d_se_reduce", "inbound_nodes": [{"args": [{"class_name": "__keras_tensor__", "config": {"shape": [null, 1, 1, 672], "dtype": "float32", "keras_history": ["block5d_se_reshape", 0, 0]}}], "kwargs": {}}]}, {"class_name": "Conv2D", "config": {"name": "block5d_se_expand", "trainable": true, "dtype": {"class_name": "DTypePolicy", "config": {"name": "float32"}, "shared_object_id": 132965955152160}, "filters": 672, "kernel_size": [1, 1], "strides": [1, 1], "padding": "same", "data_format": "channels_last", "dilation_rate": [1, 1], "groups": 1, "activation": "sigmoid", "use_bias": true, "kernel_initializer": {"class_name": "VarianceScaling", "config": {"scale": 2.0, "mode": "fan_out", "distribution": "truncated_normal", "seed": null}}, "bias_initializer": {"class_name": "Zeros", "config": {}}, "kernel_regularizer": null, "bias_regularizer": null, "activity_regularizer": null, "kernel_constraint": null, "bias_constraint": null}, "build_config": {"input_shape": [null, 1, 1, 28]}, "name": "block5d_se_expand", "inbound_nodes": [{"args": [{"class_name": "__keras_tensor__", "config": {"shape": [null, 1, 1, 28], "dtype": "float32", "keras_history": ["block5d_se_reduce", 0, 0]}}], "kwargs": {}}]}, {"class_name": "Multiply", "config": {"name": "block5d_se_excite", "trainable": true, "dtype": {"class_name": "DTypePolicy", "config": {"name": "float32"}, "shared_object_id": 132965955152160}}, "build_config": {"input_shape": [[null, 8, 8, 672], [null, 1, 1, 672]]}, "name": "block5d_se_excite", "inbound_nodes": [{"args": [[{"class_name": "__keras_tensor__", "config": {"shape": [null, 8, 8, 672], "dtype": "float32", "keras_history": ["block5d_activation", 0, 0]}}, {"class_name": "__keras_tensor__", "config": {"shape": [null, 1, 1, 672], "dtype": "float32", "keras_history": ["block5d_se_expand", 0, 0]}}]], "kwargs": {}}]}, {"class_name": "Conv2D", "config": {"name": "block5d_project_conv", "trainable": true, "dtype": {"class_name": "DTypePolicy", "config": {"name": "float32"}, "shared_object_id": 132965955152160}, "filters": 112, "kernel_size": [1, 1], "strides": [1, 1], "padding": "same", "data_format": "channels_last", "dilation_rate": [1, 1], "groups": 1, "activation": "linear", "use_bias": false, "kernel_initializer": {"class_name": "VarianceScaling", "config": {"scale": 2.0, "mode": "fan_out", "distribution": "truncated_normal", "seed": null}}, "bias_initializer": {"class_name": "Zeros", "config": {}}, "kernel_regularizer": null, "bias_regularizer": null, "activity_regularizer": null, "kernel_constraint": null, "bias_constraint": null}, "build_config": {"input_shape": [null, 8, 8, 672]}, "name": "block5d_project_conv", "inbound_nodes": [{"args": [{"class_name": "__keras_tensor__", "config": {"shape": [null, 8, 8, 672], "dtype": "float32", "keras_history": ["block5d_se_excite", 0, 0]}}], "kwargs": {}}]}, {"class_name": "BatchNormalization", "config": {"name": "block5d_project_bn", "trainable": true, "dtype": {"class_name": "DTypePolicy", "config": {"name": "float32"}, "shared_object_id": 132965955152160}, "axis": 3, "momentum": 0.9, "epsilon": 0.001, "center": true, "scale": true, "beta_initializer": {"class_name": "Zeros", "config": {}}, "gamma_initializer": {"class_name": "Ones", "config": {}}, "moving_mean_initializer": {"class_name": "Zeros", "config": {}}, "moving_variance_initializer": {"class_name": "Ones", "config": {}}, "beta_regularizer": null, "gamma_regularizer": null, "beta_constraint": null, "gamma_constraint": null, "synchronized": false}, "build_config": {"input_shape": [null, 8, 8, 112]}, "name": "block5d_project_bn", "inbound_nodes": [{"args": [{"class_name": "__keras_tensor__", "config": {"shape": [null, 8, 8, 112], "dtype": "float32", "keras_history": ["block5d_project_conv", 0, 0]}}], "kwargs": {"mask": null}}]}, {"class_name": "Dropout", "config": {"name": "block5d_drop", "trainable": true, "dtype": {"class_name": "DTypePolicy", "config": {"name": "float32"}, "shared_object_id": 132965955152160}, "rate": 0.10476190476190476, "seed": null, "noise_shape": [null, 1, 1, 1]}, "build_config": {"input_shape": [null, 8, 8, 112]}, "name": "block5d_drop", "inbound_nodes": [{"args": [{"class_name": "__keras_tensor__", "config": {"shape": [null, 8, 8, 112], "dtype": "float32", "keras_history": ["block5d_project_bn", 0, 0]}}], "kwargs": {"training": false}}]}, {"class_name": "Add", "config": {"name": "block5d_add", "trainable": true, "dtype": {"class_name": "DTypePolicy", "config": {"name": "float32"}, "shared_object_id": 132965955152160}}, "build_config": {"input_shape": [[null, 8, 8, 112], [null, 8, 8, 112]]}, "name": "block5d_add", "inbound_nodes": [{"args": [[{"class_name": "__keras_tensor__", "config": {"shape": [null, 8, 8, 112], "dtype": "float32", "keras_history": ["block5d_drop", 0, 0]}}, {"class_name": "__keras_tensor__", "config": {"shape": [null, 8, 8, 112], "dtype": "float32", "keras_history": ["block5c_add", 0, 0]}}]], "kwargs": {}}]}, {"class_name": "Conv2D", "config": {"name": "block5e_expand_conv", "trainable": true, "dtype": {"class_name": "DTypePolicy", "config": {"name": "float32"}, "shared_object_id": 132965955152160}, "filters": 672, "kernel_size": [1, 1], "strides": [1, 1], "padding": "same", "data_format": "channels_last", "dilation_rate": [1, 1], "groups": 1, "activation": "linear", "use_bias": false, "kernel_initializer": {"class_name": "VarianceScaling", "config": {"scale": 2.0, "mode": "fan_out", "distribution": "truncated_normal", "seed": null}}, "bias_initializer": {"class_name": "Zeros", "config": {}}, "kernel_regularizer": null, "bias_regularizer": null, "activity_regularizer": null, "kernel_constraint": null, "bias_constraint": null}, "build_config": {"input_shape": [null, 8, 8, 112]}, "name": "block5e_expand_conv", "inbound_nodes": [{"args": [{"class_name": "__keras_tensor__", "config": {"shape": [null, 8, 8, 112], "dtype": "float32", "keras_history": ["block5d_add", 0, 0]}}], "kwargs": {}}]}, {"class_name": "BatchNormalization", "config": {"name": "block5e_expand_bn", "trainable": true, "dtype": {"class_name": "DTypePolicy", "config": {"name": "float32"}, "shared_object_id": 132965955152160}, "axis": 3, "momentum": 0.9, "epsilon": 0.001, "center": true, "scale": true, "beta_initializer": {"class_name": "Zeros", "config": {}}, "gamma_initializer": {"class_name": "Ones", "config": {}}, "moving_mean_initializer": {"class_name": "Zeros", "config": {}}, "moving_variance_initializer": {"class_name": "Ones", "config": {}}, "beta_regularizer": null, "gamma_regularizer": null, "beta_constraint": null, "gamma_constraint": null, "synchronized": false}, "build_config": {"input_shape": [null, 8, 8, 672]}, "name": "block5e_expand_bn", "inbound_nodes": [{"args": [{"class_name": "__keras_tensor__", "config": {"shape": [null, 8, 8, 672], "dtype": "float32", "keras_history": ["block5e_expand_conv", 0, 0]}}], "kwargs": {"mask": null}}]}, {"class_name": "Activation", "config": {"name": "block5e_expand_activation", "trainable": true, "dtype": {"class_name": "DTypePolicy", "config": {"name": "float32"}, "shared_object_id": 132965955152160}, "activation": "silu"}, "build_config": {"input_shape": [null, 8, 8, 672]}, "name": "block5e_expand_activation", "inbound_nodes": [{"args": [{"class_name": "__keras_tensor__", "config": {"shape": [null, 8, 8, 672], "dtype": "float32", "keras_history": ["block5e_expand_bn", 0, 0]}}], "kwargs": {}}]}, {"class_name": "DepthwiseConv2D", "config": {"name": "block5e_dwconv2", "trainable": true, "dtype": {"class_name": "DTypePolicy", "config": {"name": "float32"}, "shared_object_id": 132965955152160}, "depth_multiplier": 1, "kernel_size": [3, 3], "strides": [1, 1], "padding": "same", "data_format": "channels_last", "dilation_rate": [1, 1], "activation": "linear", "use_bias": false, "depthwise_initializer": {"class_name": "VarianceScaling", "config": {"scale": 2.0, "mode": "fan_out", "distribution": "truncated_normal", "seed": null}}, "bias_initializer": {"class_name": "Zeros", "config": {}}, "depthwise_regularizer": null, "bias_regularizer": null, "activity_regularizer": null, "depthwise_constraint": null, "bias_constraint": null}, "build_config": {"input_shape": [null, 8, 8, 672]}, "name": "block5e_dwconv2", "inbound_nodes": [{"args": [{"class_name": "__keras_tensor__", "config": {"shape": [null, 8, 8, 672], "dtype": "float32", "keras_history": ["block5e_expand_activation", 0, 0]}}], "kwargs": {}}]}, {"class_name": "BatchNormalization", "config": {"name": "block5e_bn", "trainable": true, "dtype": {"class_name": "DTypePolicy", "config": {"name": "float32"}, "shared_object_id": 132965955152160}, "axis": 3, "momentum": 0.9, "epsilon": 0.001, "center": true, "scale": true, "beta_initializer": {"class_name": "Zeros", "config": {}}, "gamma_initializer": {"class_name": "Ones", "config": {}}, "moving_mean_initializer": {"class_name": "Zeros", "config": {}}, "moving_variance_initializer": {"class_name": "Ones", "config": {}}, "beta_regularizer": null, "gamma_regularizer": null, "beta_constraint": null, "gamma_constraint": null, "synchronized": false}, "build_config": {"input_shape": [null, 8, 8, 672]}, "name": "block5e_bn", "inbound_nodes": [{"args": [{"class_name": "__keras_tensor__", "config": {"shape": [null, 8, 8, 672], "dtype": "float32", "keras_history": ["block5e_dwconv2", 0, 0]}}], "kwargs": {"mask": null}}]}, {"class_name": "Activation", "config": {"name": "block5e_activation", "trainable": true, "dtype": {"class_name": "DTypePolicy", "config": {"name": "float32"}, "shared_object_id": 132965955152160}, "activation": "silu"}, "build_config": {"input_shape": [null, 8, 8, 672]}, "name": "block5e_activation", "inbound_nodes": [{"args": [{"class_name": "__keras_tensor__", "config": {"shape": [null, 8, 8, 672], "dtype": "float32", "keras_history": ["block5e_bn", 0, 0]}}], "kwargs": {}}]}, {"class_name": "GlobalAveragePooling2D", "config": {"name": "block5e_se_squeeze", "trainable": true, "dtype": {"class_name": "DTypePolicy", "config": {"name": "float32"}, "shared_object_id": 132965955152160}, "data_format": "channels_last", "keepdims": false}, "build_config": {"input_shape": [null, 8, 8, 672]}, "name": "block5e_se_squeeze", "inbound_nodes": [{"args": [{"class_name": "__keras_tensor__", "config": {"shape": [null, 8, 8, 672], "dtype": "float32", "keras_history": ["block5e_activation", 0, 0]}}], "kwargs": {}}]}, {"class_name": "Reshape", "config": {"name": "block5e_se_reshape", "trainable": true, "dtype": {"class_name": "DTypePolicy", "config": {"name": "float32"}, "shared_object_id": 132965955152160}, "target_shape": [1, 1, 672]}, "build_config": {"input_shape": [null, 672]}, "name": "block5e_se_reshape", "inbound_nodes": [{"args": [{"class_name": "__keras_tensor__", "config": {"shape": [null, 672], "dtype": "float32", "keras_history": ["block5e_se_squeeze", 0, 0]}}], "kwargs": {}}]}, {"class_name": "Conv2D", "config": {"name": "block5e_se_reduce", "trainable": true, "dtype": {"class_name": "DTypePolicy", "config": {"name": "float32"}, "shared_object_id": 132965955152160}, "filters": 28, "kernel_size": [1, 1], "strides": [1, 1], "padding": "same", "data_format": "channels_last", "dilation_rate": [1, 1], "groups": 1, "activation": "silu", "use_bias": true, "kernel_initializer": {"class_name": "VarianceScaling", "config": {"scale": 2.0, "mode": "fan_out", "distribution": "truncated_normal", "seed": null}}, "bias_initializer": {"class_name": "Zeros", "config": {}}, "kernel_regularizer": null, "bias_regularizer": null, "activity_regularizer": null, "kernel_constraint": null, "bias_constraint": null}, "build_config": {"input_shape": [null, 1, 1, 672]}, "name": "block5e_se_reduce", "inbound_nodes": [{"args": [{"class_name": "__keras_tensor__", "config": {"shape": [null, 1, 1, 672], "dtype": "float32", "keras_history": ["block5e_se_reshape", 0, 0]}}], "kwargs": {}}]}, {"class_name": "Conv2D", "config": {"name": "block5e_se_expand", "trainable": true, "dtype": {"class_name": "DTypePolicy", "config": {"name": "float32"}, "shared_object_id": 132965955152160}, "filters": 672, "kernel_size": [1, 1], "strides": [1, 1], "padding": "same", "data_format": "channels_last", "dilation_rate": [1, 1], "groups": 1, "activation": "sigmoid", "use_bias": true, "kernel_initializer": {"class_name": "VarianceScaling", "config": {"scale": 2.0, "mode": "fan_out", "distribution": "truncated_normal", "seed": null}}, "bias_initializer": {"class_name": "Zeros", "config": {}}, "kernel_regularizer": null, "bias_regularizer": null, "activity_regularizer": null, "kernel_constraint": null, "bias_constraint": null}, "build_config": {"input_shape": [null, 1, 1, 28]}, "name": "block5e_se_expand", "inbound_nodes": [{"args": [{"class_name": "__keras_tensor__", "config": {"shape": [null, 1, 1, 28], "dtype": "float32", "keras_history": ["block5e_se_reduce", 0, 0]}}], "kwargs": {}}]}, {"class_name": "Multiply", "config": {"name": "block5e_se_excite", "trainable": true, "dtype": {"class_name": "DTypePolicy", "config": {"name": "float32"}, "shared_object_id": 132965955152160}}, "build_config": {"input_shape": [[null, 8, 8, 672], [null, 1, 1, 672]]}, "name": "block5e_se_excite", "inbound_nodes": [{"args": [[{"class_name": "__keras_tensor__", "config": {"shape": [null, 8, 8, 672], "dtype": "float32", "keras_history": ["block5e_activation", 0, 0]}}, {"class_name": "__keras_tensor__", "config": {"shape": [null, 1, 1, 672], "dtype": "float32", "keras_history": ["block5e_se_expand", 0, 0]}}]], "kwargs": {}}]}, {"class_name": "Conv2D", "config": {"name": "block5e_project_conv", "trainable": true, "dtype": {"class_name": "DTypePolicy", "config": {"name": "float32"}, "shared_object_id": 132965955152160}, "filters": 112, "kernel_size": [1, 1], "strides": [1, 1], "padding": "same", "data_format": "channels_last", "dilation_rate": [1, 1], "groups": 1, "activation": "linear", "use_bias": false, "kernel_initializer": {"class_name": "VarianceScaling", "config": {"scale": 2.0, "mode": "fan_out", "distribution": "truncated_normal", "seed": null}}, "bias_initializer": {"class_name": "Zeros", "config": {}}, "kernel_regularizer": null, "bias_regularizer": null, "activity_regularizer": null, "kernel_constraint": null, "bias_constraint": null}, "build_config": {"input_shape": [null, 8, 8, 672]}, "name": "block5e_project_conv", "inbound_nodes": [{"args": [{"class_name": "__keras_tensor__", "config": {"shape": [null, 8, 8, 672], "dtype": "float32", "keras_history": ["block5e_se_excite", 0, 0]}}], "kwargs": {}}]}, {"class_name": "BatchNormalization", "config": {"name": "block5e_project_bn", "trainable": true, "dtype": {"class_name": "DTypePolicy", "config": {"name": "float32"}, "shared_object_id": 132965955152160}, "axis": 3, "momentum": 0.9, "epsilon": 0.001, "center": true, "scale": true, "beta_initializer": {"class_name": "Zeros", "config": {}}, "gamma_initializer": {"class_name": "Ones", "config": {}}, "moving_mean_initializer": {"class_name": "Zeros", "config": {}}, "moving_variance_initializer": {"class_name": "Ones", "config": {}}, "beta_regularizer": null, "gamma_regularizer": null, "beta_constraint": null, "gamma_constraint": null, "synchronized": false}, "build_config": {"input_shape": [null, 8, 8, 112]}, "name": "block5e_project_bn", "inbound_nodes": [{"args": [{"class_name": "__keras_tensor__", "config": {"shape": [null, 8, 8, 112], "dtype": "float32", "keras_history": ["block5e_project_conv", 0, 0]}}], "kwargs": {"mask": null}}]}, {"class_name": "Dropout", "config": {"name": "block5e_drop", "trainable": true, "dtype": {"class_name": "DTypePolicy", "config": {"name": "float32"}, "shared_object_id": 132965955152160}, "rate": 0.1142857142857143, "seed": null, "noise_shape": [null, 1, 1, 1]}, "build_config": {"input_shape": [null, 8, 8, 112]}, "name": "block5e_drop", "inbound_nodes": [{"args": [{"class_name": "__keras_tensor__", "config": {"shape": [null, 8, 8, 112], "dtype": "float32", "keras_history": ["block5e_project_bn", 0, 0]}}], "kwargs": {"training": false}}]}, {"class_name": "Add", "config": {"name": "block5e_add", "trainable": true, "dtype": {"class_name": "DTypePolicy", "config": {"name": "float32"}, "shared_object_id": 132965955152160}}, "build_config": {"input_shape": [[null, 8, 8, 112], [null, 8, 8, 112]]}, "name": "block5e_add", "inbound_nodes": [{"args": [[{"class_name": "__keras_tensor__", "config": {"shape": [null, 8, 8, 112], "dtype": "float32", "keras_history": ["block5e_drop", 0, 0]}}, {"class_name": "__keras_tensor__", "config": {"shape": [null, 8, 8, 112], "dtype": "float32", "keras_history": ["block5d_add", 0, 0]}}]], "kwargs": {}}]}, {"class_name": "Conv2D", "config": {"name": "block6a_expand_conv", "trainable": true, "dtype": {"class_name": "DTypePolicy", "config": {"name": "float32"}, "shared_object_id": 132965955152160}, "filters": 672, "kernel_size": [1, 1], "strides": [1, 1], "padding": "same", "data_format": "channels_last", "dilation_rate": [1, 1], "groups": 1, "activation": "linear", "use_bias": false, "kernel_initializer": {"class_name": "VarianceScaling", "config": {"scale": 2.0, "mode": "fan_out", "distribution": "truncated_normal", "seed": null}}, "bias_initializer": {"class_name": "Zeros", "config": {}}, "kernel_regularizer": null, "bias_regularizer": null, "activity_regularizer": null, "kernel_constraint": null, "bias_constraint": null}, "build_config": {"input_shape": [null, 8, 8, 112]}, "name": "block6a_expand_conv", "inbound_nodes": [{"args": [{"class_name": "__keras_tensor__", "config": {"shape": [null, 8, 8, 112], "dtype": "float32", "keras_history": ["block5e_add", 0, 0]}}], "kwargs": {}}]}, {"class_name": "BatchNormalization", "config": {"name": "block6a_expand_bn", "trainable": true, "dtype": {"class_name": "DTypePolicy", "config": {"name": "float32"}, "shared_object_id": 132965955152160}, "axis": 3, "momentum": 0.9, "epsilon": 0.001, "center": true, "scale": true, "beta_initializer": {"class_name": "Zeros", "config": {}}, "gamma_initializer": {"class_name": "Ones", "config": {}}, "moving_mean_initializer": {"class_name": "Zeros", "config": {}}, "moving_variance_initializer": {"class_name": "Ones", "config": {}}, "beta_regularizer": null, "gamma_regularizer": null, "beta_constraint": null, "gamma_constraint": null, "synchronized": false}, "build_config": {"input_shape": [null, 8, 8, 672]}, "name": "block6a_expand_bn", "inbound_nodes": [{"args": [{"class_name": "__keras_tensor__", "config": {"shape": [null, 8, 8, 672], "dtype": "float32", "keras_history": ["block6a_expand_conv", 0, 0]}}], "kwargs": {"mask": null}}]}, {"class_name": "Activation", "config": {"name": "block6a_expand_activation", "trainable": true, "dtype": {"class_name": "DTypePolicy", "config": {"name": "float32"}, "shared_object_id": 132965955152160}, "activation": "silu"}, "build_config": {"input_shape": [null, 8, 8, 672]}, "name": "block6a_expand_activation", "inbound_nodes": [{"args": [{"class_name": "__keras_tensor__", "config": {"shape": [null, 8, 8, 672], "dtype": "float32", "keras_history": ["block6a_expand_bn", 0, 0]}}], "kwargs": {}}]}, {"class_name": "DepthwiseConv2D", "config": {"name": "block6a_dwconv2", "trainable": true, "dtype": {"class_name": "DTypePolicy", "config": {"name": "float32"}, "shared_object_id": 132965955152160}, "depth_multiplier": 1, "kernel_size": [3, 3], "strides": [2, 2], "padding": "same", "data_format": "channels_last", "dilation_rate": [1, 1], "activation": "linear", "use_bias": false, "depthwise_initializer": {"class_name": "VarianceScaling", "config": {"scale": 2.0, "mode": "fan_out", "distribution": "truncated_normal", "seed": null}}, "bias_initializer": {"class_name": "Zeros", "config": {}}, "depthwise_regularizer": null, "bias_regularizer": null, "activity_regularizer": null, "depthwise_constraint": null, "bias_constraint": null}, "build_config": {"input_shape": [null, 8, 8, 672]}, "name": "block6a_dwconv2", "inbound_nodes": [{"args": [{"class_name": "__keras_tensor__", "config": {"shape": [null, 8, 8, 672], "dtype": "float32", "keras_history": ["block6a_expand_activation", 0, 0]}}], "kwargs": {}}]}, {"class_name": "BatchNormalization", "config": {"name": "block6a_bn", "trainable": true, "dtype": {"class_name": "DTypePolicy", "config": {"name": "float32"}, "shared_object_id": 132965955152160}, "axis": 3, "momentum": 0.9, "epsilon": 0.001, "center": true, "scale": true, "beta_initializer": {"class_name": "Zeros", "config": {}}, "gamma_initializer": {"class_name": "Ones", "config": {}}, "moving_mean_initializer": {"class_name": "Zeros", "config": {}}, "moving_variance_initializer": {"class_name": "Ones", "config": {}}, "beta_regularizer": null, "gamma_regularizer": null, "beta_constraint": null, "gamma_constraint": null, "synchronized": false}, "build_config": {"input_shape": [null, 4, 4, 672]}, "name": "block6a_bn", "inbound_nodes": [{"args": [{"class_name": "__keras_tensor__", "config": {"shape": [null, 4, 4, 672], "dtype": "float32", "keras_history": ["block6a_dwconv2", 0, 0]}}], "kwargs": {"mask": null}}]}, {"class_name": "Activation", "config": {"name": "block6a_activation", "trainable": true, "dtype": {"class_name": "DTypePolicy", "config": {"name": "float32"}, "shared_object_id": 132965955152160}, "activation": "silu"}, "build_config": {"input_shape": [null, 4, 4, 672]}, "name": "block6a_activation", "inbound_nodes": [{"args": [{"class_name": "__keras_tensor__", "config": {"shape": [null, 4, 4, 672], "dtype": "float32", "keras_history": ["block6a_bn", 0, 0]}}], "kwargs": {}}]}, {"class_name": "GlobalAveragePooling2D", "config": {"name": "block6a_se_squeeze", "trainable": true, "dtype": {"class_name": "DTypePolicy", "config": {"name": "float32"}, "shared_object_id": 132965955152160}, "data_format": "channels_last", "keepdims": false}, "build_config": {"input_shape": [null, 4, 4, 672]}, "name": "block6a_se_squeeze", "inbound_nodes": [{"args": [{"class_name": "__keras_tensor__", "config": {"shape": [null, 4, 4, 672], "dtype": "float32", "keras_history": ["block6a_activation", 0, 0]}}], "kwargs": {}}]}, {"class_name": "Reshape", "config": {"name": "block6a_se_reshape", "trainable": true, "dtype": {"class_name": "DTypePolicy", "config": {"name": "float32"}, "shared_object_id": 132965955152160}, "target_shape": [1, 1, 672]}, "build_config": {"input_shape": [null, 672]}, "name": "block6a_se_reshape", "inbound_nodes": [{"args": [{"class_name": "__keras_tensor__", "config": {"shape": [null, 672], "dtype": "float32", "keras_history": ["block6a_se_squeeze", 0, 0]}}], "kwargs": {}}]}, {"class_name": "Conv2D", "config": {"name": "block6a_se_reduce", "trainable": true, "dtype": {"class_name": "DTypePolicy", "config": {"name": "float32"}, "shared_object_id": 132965955152160}, "filters": 28, "kernel_size": [1, 1], "strides": [1, 1], "padding": "same", "data_format": "channels_last", "dilation_rate": [1, 1], "groups": 1, "activation": "silu", "use_bias": true, "kernel_initializer": {"class_name": "VarianceScaling", "config": {"scale": 2.0, "mode": "fan_out", "distribution": "truncated_normal", "seed": null}}, "bias_initializer": {"class_name": "Zeros", "config": {}}, "kernel_regularizer": null, "bias_regularizer": null, "activity_regularizer": null, "kernel_constraint": null, "bias_constraint": null}, "build_config": {"input_shape": [null, 1, 1, 672]}, "name": "block6a_se_reduce", "inbound_nodes": [{"args": [{"class_name": "__keras_tensor__", "config": {"shape": [null, 1, 1, 672], "dtype": "float32", "keras_history": ["block6a_se_reshape", 0, 0]}}], "kwargs": {}}]}, {"class_name": "Conv2D", "config": {"name": "block6a_se_expand", "trainable": true, "dtype": {"class_name": "DTypePolicy", "config": {"name": "float32"}, "shared_object_id": 132965955152160}, "filters": 672, "kernel_size": [1, 1], "strides": [1, 1], "padding": "same", "data_format": "channels_last", "dilation_rate": [1, 1], "groups": 1, "activation": "sigmoid", "use_bias": true, "kernel_initializer": {"class_name": "VarianceScaling", "config": {"scale": 2.0, "mode": "fan_out", "distribution": "truncated_normal", "seed": null}}, "bias_initializer": {"class_name": "Zeros", "config": {}}, "kernel_regularizer": null, "bias_regularizer": null, "activity_regularizer": null, "kernel_constraint": null, "bias_constraint": null}, "build_config": {"input_shape": [null, 1, 1, 28]}, "name": "block6a_se_expand", "inbound_nodes": [{"args": [{"class_name": "__keras_tensor__", "config": {"shape": [null, 1, 1, 28], "dtype": "float32", "keras_history": ["block6a_se_reduce", 0, 0]}}], "kwargs": {}}]}, {"class_name": "Multiply", "config": {"name": "block6a_se_excite", "trainable": true, "dtype": {"class_name": "DTypePolicy", "config": {"name": "float32"}, "shared_object_id": 132965955152160}}, "build_config": {"input_shape": [[null, 4, 4, 672], [null, 1, 1, 672]]}, "name": "block6a_se_excite", "inbound_nodes": [{"args": [[{"class_name": "__keras_tensor__", "config": {"shape": [null, 4, 4, 672], "dtype": "float32", "keras_history": ["block6a_activation", 0, 0]}}, {"class_name": "__keras_tensor__", "config": {"shape": [null, 1, 1, 672], "dtype": "float32", "keras_history": ["block6a_se_expand", 0, 0]}}]], "kwargs": {}}]}, {"class_name": "Conv2D", "config": {"name": "block6a_project_conv", "trainable": true, "dtype": {"class_name": "DTypePolicy", "config": {"name": "float32"}, "shared_object_id": 132965955152160}, "filters": 192, "kernel_size": [1, 1], "strides": [1, 1], "padding": "same", "data_format": "channels_last", "dilation_rate": [1, 1], "groups": 1, "activation": "linear", "use_bias": false, "kernel_initializer": {"class_name": "VarianceScaling", "config": {"scale": 2.0, "mode": "fan_out", "distribution": "truncated_normal", "seed": null}}, "bias_initializer": {"class_name": "Zeros", "config": {}}, "kernel_regularizer": null, "bias_regularizer": null, "activity_regularizer": null, "kernel_constraint": null, "bias_constraint": null}, "build_config": {"input_shape": [null, 4, 4, 672]}, "name": "block6a_project_conv", "inbound_nodes": [{"args": [{"class_name": "__keras_tensor__", "config": {"shape": [null, 4, 4, 672], "dtype": "float32", "keras_history": ["block6a_se_excite", 0, 0]}}], "kwargs": {}}]}, {"class_name": "BatchNormalization", "config": {"name": "block6a_project_bn", "trainable": true, "dtype": {"class_name": "DTypePolicy", "config": {"name": "float32"}, "shared_object_id": 132965955152160}, "axis": 3, "momentum": 0.9, "epsilon": 0.001, "center": true, "scale": true, "beta_initializer": {"class_name": "Zeros", "config": {}}, "gamma_initializer": {"class_name": "Ones", "config": {}}, "moving_mean_initializer": {"class_name": "Zeros", "config": {}}, "moving_variance_initializer": {"class_name": "Ones", "config": {}}, "beta_regularizer": null, "gamma_regularizer": null, "beta_constraint": null, "gamma_constraint": null, "synchronized": false}, "build_config": {"input_shape": [null, 4, 4, 192]}, "name": "block6a_project_bn", "inbound_nodes": [{"args": [{"class_name": "__keras_tensor__", "config": {"shape": [null, 4, 4, 192], "dtype": "float32", "keras_history": ["block6a_project_conv", 0, 0]}}], "kwargs": {"mask": null}}]}, {"class_name": "Conv2D", "config": {"name": "block6b_expand_conv", "trainable": true, "dtype": {"class_name": "DTypePolicy", "config": {"name": "float32"}, "shared_object_id": 132965955152160}, "filters": 1152, "kernel_size": [1, 1], "strides": [1, 1], "padding": "same", "data_format": "channels_last", "dilation_rate": [1, 1], "groups": 1, "activation": "linear", "use_bias": false, "kernel_initializer": {"class_name": "VarianceScaling", "config": {"scale": 2.0, "mode": "fan_out", "distribution": "truncated_normal", "seed": null}}, "bias_initializer": {"class_name": "Zeros", "config": {}}, "kernel_regularizer": null, "bias_regularizer": null, "activity_regularizer": null, "kernel_constraint": null, "bias_constraint": null}, "build_config": {"input_shape": [null, 4, 4, 192]}, "name": "block6b_expand_conv", "inbound_nodes": [{"args": [{"class_name": "__keras_tensor__", "config": {"shape": [null, 4, 4, 192], "dtype": "float32", "keras_history": ["block6a_project_bn", 0, 0]}}], "kwargs": {}}]}, {"class_name": "BatchNormalization", "config": {"name": "block6b_expand_bn", "trainable": true, "dtype": {"class_name": "DTypePolicy", "config": {"name": "float32"}, "shared_object_id": 132965955152160}, "axis": 3, "momentum": 0.9, "epsilon": 0.001, "center": true, "scale": true, "beta_initializer": {"class_name": "Zeros", "config": {}}, "gamma_initializer": {"class_name": "Ones", "config": {}}, "moving_mean_initializer": {"class_name": "Zeros", "config": {}}, "moving_variance_initializer": {"class_name": "Ones", "config": {}}, "beta_regularizer": null, "gamma_regularizer": null, "beta_constraint": null, "gamma_constraint": null, "synchronized": false}, "build_config": {"input_shape": [null, 4, 4, 1152]}, "name": "block6b_expand_bn", "inbound_nodes": [{"args": [{"class_name": "__keras_tensor__", "config": {"shape": [null, 4, 4, 1152], "dtype": "float32", "keras_history": ["block6b_expand_conv", 0, 0]}}], "kwargs": {"mask": null}}]}, {"class_name": "Activation", "config": {"name": "block6b_expand_activation", "trainable": true, "dtype": {"class_name": "DTypePolicy", "config": {"name": "float32"}, "shared_object_id": 132965955152160}, "activation": "silu"}, "build_config": {"input_shape": [null, 4, 4, 1152]}, "name": "block6b_expand_activation", "inbound_nodes": [{"args": [{"class_name": "__keras_tensor__", "config": {"shape": [null, 4, 4, 1152], "dtype": "float32", "keras_history": ["block6b_expand_bn", 0, 0]}}], "kwargs": {}}]}, {"class_name": "DepthwiseConv2D", "config": {"name": "block6b_dwconv2", "trainable": true, "dtype": {"class_name": "DTypePolicy", "config": {"name": "float32"}, "shared_object_id": 132965955152160}, "depth_multiplier": 1, "kernel_size": [3, 3], "strides": [1, 1], "padding": "same", "data_format": "channels_last", "dilation_rate": [1, 1], "activation": "linear", "use_bias": false, "depthwise_initializer": {"class_name": "VarianceScaling", "config": {"scale": 2.0, "mode": "fan_out", "distribution": "truncated_normal", "seed": null}}, "bias_initializer": {"class_name": "Zeros", "config": {}}, "depthwise_regularizer": null, "bias_regularizer": null, "activity_regularizer": null, "depthwise_constraint": null, "bias_constraint": null}, "build_config": {"input_shape": [null, 4, 4, 1152]}, "name": "block6b_dwconv2", "inbound_nodes": [{"args": [{"class_name": "__keras_tensor__", "config": {"shape": [null, 4, 4, 1152], "dtype": "float32", "keras_history": ["block6b_expand_activation", 0, 0]}}], "kwargs": {}}]}, {"class_name": "BatchNormalization", "config": {"name": "block6b_bn", "trainable": true, "dtype": {"class_name": "DTypePolicy", "config": {"name": "float32"}, "shared_object_id": 132965955152160}, "axis": 3, "momentum": 0.9, "epsilon": 0.001, "center": true, "scale": true, "beta_initializer": {"class_name": "Zeros", "config": {}}, "gamma_initializer": {"class_name": "Ones", "config": {}}, "moving_mean_initializer": {"class_name": "Zeros", "config": {}}, "moving_variance_initializer": {"class_name": "Ones", "config": {}}, "beta_regularizer": null, "gamma_regularizer": null, "beta_constraint": null, "gamma_constraint": null, "synchronized": false}, "build_config": {"input_shape": [null, 4, 4, 1152]}, "name": "block6b_bn", "inbound_nodes": [{"args": [{"class_name": "__keras_tensor__", "config": {"shape": [null, 4, 4, 1152], "dtype": "float32", "keras_history": ["block6b_dwconv2", 0, 0]}}], "kwargs": {"mask": null}}]}, {"class_name": "Activation", "config": {"name": "block6b_activation", "trainable": true, "dtype": {"class_name": "DTypePolicy", "config": {"name": "float32"}, "shared_object_id": 132965955152160}, "activation": "silu"}, "build_config": {"input_shape": [null, 4, 4, 1152]}, "name": "block6b_activation", "inbound_nodes": [{"args": [{"class_name": "__keras_tensor__", "config": {"shape": [null, 4, 4, 1152], "dtype": "float32", "keras_history": ["block6b_bn", 0, 0]}}], "kwargs": {}}]}, {"class_name": "GlobalAveragePooling2D", "config": {"name": "block6b_se_squeeze", "trainable": true, "dtype": {"class_name": "DTypePolicy", "config": {"name": "float32"}, "shared_object_id": 132965955152160}, "data_format": "channels_last", "keepdims": false}, "build_config": {"input_shape": [null, 4, 4, 1152]}, "name": "block6b_se_squeeze", "inbound_nodes": [{"args": [{"class_name": "__keras_tensor__", "config": {"shape": [null, 4, 4, 1152], "dtype": "float32", "keras_history": ["block6b_activation", 0, 0]}}], "kwargs": {}}]}, {"class_name": "Reshape", "config": {"name": "block6b_se_reshape", "trainable": true, "dtype": {"class_name": "DTypePolicy", "config": {"name": "float32"}, "shared_object_id": 132965955152160}, "target_shape": [1, 1, 1152]}, "build_config": {"input_shape": [null, 1152]}, "name": "block6b_se_reshape", "inbound_nodes": [{"args": [{"class_name": "__keras_tensor__", "config": {"shape": [null, 1152], "dtype": "float32", "keras_history": ["block6b_se_squeeze", 0, 0]}}], "kwargs": {}}]}, {"class_name": "Conv2D", "config": {"name": "block6b_se_reduce", "trainable": true, "dtype": {"class_name": "DTypePolicy", "config": {"name": "float32"}, "shared_object_id": 132965955152160}, "filters": 48, "kernel_size": [1, 1], "strides": [1, 1], "padding": "same", "data_format": "channels_last", "dilation_rate": [1, 1], "groups": 1, "activation": "silu", "use_bias": true, "kernel_initializer": {"class_name": "VarianceScaling", "config": {"scale": 2.0, "mode": "fan_out", "distribution": "truncated_normal", "seed": null}}, "bias_initializer": {"class_name": "Zeros", "config": {}}, "kernel_regularizer": null, "bias_regularizer": null, "activity_regularizer": null, "kernel_constraint": null, "bias_constraint": null}, "build_config": {"input_shape": [null, 1, 1, 1152]}, "name": "block6b_se_reduce", "inbound_nodes": [{"args": [{"class_name": "__keras_tensor__", "config": {"shape": [null, 1, 1, 1152], "dtype": "float32", "keras_history": ["block6b_se_reshape", 0, 0]}}], "kwargs": {}}]}, {"class_name": "Conv2D", "config": {"name": "block6b_se_expand", "trainable": true, "dtype": {"class_name": "DTypePolicy", "config": {"name": "float32"}, "shared_object_id": 132965955152160}, "filters": 1152, "kernel_size": [1, 1], "strides": [1, 1], "padding": "same", "data_format": "channels_last", "dilation_rate": [1, 1], "groups": 1, "activation": "sigmoid", "use_bias": true, "kernel_initializer": {"class_name": "VarianceScaling", "config": {"scale": 2.0, "mode": "fan_out", "distribution": "truncated_normal", "seed": null}}, "bias_initializer": {"class_name": "Zeros", "config": {}}, "kernel_regularizer": null, "bias_regularizer": null, "activity_regularizer": null, "kernel_constraint": null, "bias_constraint": null}, "build_config": {"input_shape": [null, 1, 1, 48]}, "name": "block6b_se_expand", "inbound_nodes": [{"args": [{"class_name": "__keras_tensor__", "config": {"shape": [null, 1, 1, 48], "dtype": "float32", "keras_history": ["block6b_se_reduce", 0, 0]}}], "kwargs": {}}]}, {"class_name": "Multiply", "config": {"name": "block6b_se_excite", "trainable": true, "dtype": {"class_name": "DTypePolicy", "config": {"name": "float32"}, "shared_object_id": 132965955152160}}, "build_config": {"input_shape": [[null, 4, 4, 1152], [null, 1, 1, 1152]]}, "name": "block6b_se_excite", "inbound_nodes": [{"args": [[{"class_name": "__keras_tensor__", "config": {"shape": [null, 4, 4, 1152], "dtype": "float32", "keras_history": ["block6b_activation", 0, 0]}}, {"class_name": "__keras_tensor__", "config": {"shape": [null, 1, 1, 1152], "dtype": "float32", "keras_history": ["block6b_se_expand", 0, 0]}}]], "kwargs": {}}]}, {"class_name": "Conv2D", "config": {"name": "block6b_project_conv", "trainable": true, "dtype": {"class_name": "DTypePolicy", "config": {"name": "float32"}, "shared_object_id": 132965955152160}, "filters": 192, "kernel_size": [1, 1], "strides": [1, 1], "padding": "same", "data_format": "channels_last", "dilation_rate": [1, 1], "groups": 1, "activation": "linear", "use_bias": false, "kernel_initializer": {"class_name": "VarianceScaling", "config": {"scale": 2.0, "mode": "fan_out", "distribution": "truncated_normal", "seed": null}}, "bias_initializer": {"class_name": "Zeros", "config": {}}, "kernel_regularizer": null, "bias_regularizer": null, "activity_regularizer": null, "kernel_constraint": null, "bias_constraint": null}, "build_config": {"input_shape": [null, 4, 4, 1152]}, "name": "block6b_project_conv", "inbound_nodes": [{"args": [{"class_name": "__keras_tensor__", "config": {"shape": [null, 4, 4, 1152], "dtype": "float32", "keras_history": ["block6b_se_excite", 0, 0]}}], "kwargs": {}}]}, {"class_name": "BatchNormalization", "config": {"name": "block6b_project_bn", "trainable": true, "dtype": {"class_name": "DTypePolicy", "config": {"name": "float32"}, "shared_object_id": 132965955152160}, "axis": 3, "momentum": 0.9, "epsilon": 0.001, "center": true, "scale": true, "beta_initializer": {"class_name": "Zeros", "config": {}}, "gamma_initializer": {"class_name": "Ones", "config": {}}, "moving_mean_initializer": {"class_name": "Zeros", "config": {}}, "moving_variance_initializer": {"class_name": "Ones", "config": {}}, "beta_regularizer": null, "gamma_regularizer": null, "beta_constraint": null, "gamma_constraint": null, "synchronized": false}, "build_config": {"input_shape": [null, 4, 4, 192]}, "name": "block6b_project_bn", "inbound_nodes": [{"args": [{"class_name": "__keras_tensor__", "config": {"shape": [null, 4, 4, 192], "dtype": "float32", "keras_history": ["block6b_project_conv", 0, 0]}}], "kwargs": {"mask": null}}]}, {"class_name": "Dropout", "config": {"name": "block6b_drop", "trainable": true, "dtype": {"class_name": "DTypePolicy", "config": {"name": "float32"}, "shared_object_id": 132965955152160}, "rate": 0.13333333333333336, "seed": null, "noise_shape": [null, 1, 1, 1]}, "build_config": {"input_shape": [null, 4, 4, 192]}, "name": "block6b_drop", "inbound_nodes": [{"args": [{"class_name": "__keras_tensor__", "config": {"shape": [null, 4, 4, 192], "dtype": "float32", "keras_history": ["block6b_project_bn", 0, 0]}}], "kwargs": {"training": false}}]}, {"class_name": "Add", "config": {"name": "block6b_add", "trainable": true, "dtype": {"class_name": "DTypePolicy", "config": {"name": "float32"}, "shared_object_id": 132965955152160}}, "build_config": {"input_shape": [[null, 4, 4, 192], [null, 4, 4, 192]]}, "name": "block6b_add", "inbound_nodes": [{"args": [[{"class_name": "__keras_tensor__", "config": {"shape": [null, 4, 4, 192], "dtype": "float32", "keras_history": ["block6b_drop", 0, 0]}}, {"class_name": "__keras_tensor__", "config": {"shape": [null, 4, 4, 192], "dtype": "float32", "keras_history": ["block6a_project_bn", 0, 0]}}]], "kwargs": {}}]}, {"class_name": "Conv2D", "config": {"name": "block6c_expand_conv", "trainable": true, "dtype": {"class_name": "DTypePolicy", "config": {"name": "float32"}, "shared_object_id": 132965955152160}, "filters": 1152, "kernel_size": [1, 1], "strides": [1, 1], "padding": "same", "data_format": "channels_last", "dilation_rate": [1, 1], "groups": 1, "activation": "linear", "use_bias": false, "kernel_initializer": {"class_name": "VarianceScaling", "config": {"scale": 2.0, "mode": "fan_out", "distribution": "truncated_normal", "seed": null}}, "bias_initializer": {"class_name": "Zeros", "config": {}}, "kernel_regularizer": null, "bias_regularizer": null, "activity_regularizer": null, "kernel_constraint": null, "bias_constraint": null}, "build_config": {"input_shape": [null, 4, 4, 192]}, "name": "block6c_expand_conv", "inbound_nodes": [{"args": [{"class_name": "__keras_tensor__", "config": {"shape": [null, 4, 4, 192], "dtype": "float32", "keras_history": ["block6b_add", 0, 0]}}], "kwargs": {}}]}, {"class_name": "BatchNormalization", "config": {"name": "block6c_expand_bn", "trainable": true, "dtype": {"class_name": "DTypePolicy", "config": {"name": "float32"}, "shared_object_id": 132965955152160}, "axis": 3, "momentum": 0.9, "epsilon": 0.001, "center": true, "scale": true, "beta_initializer": {"class_name": "Zeros", "config": {}}, "gamma_initializer": {"class_name": "Ones", "config": {}}, "moving_mean_initializer": {"class_name": "Zeros", "config": {}}, "moving_variance_initializer": {"class_name": "Ones", "config": {}}, "beta_regularizer": null, "gamma_regularizer": null, "beta_constraint": null, "gamma_constraint": null, "synchronized": false}, "build_config": {"input_shape": [null, 4, 4, 1152]}, "name": "block6c_expand_bn", "inbound_nodes": [{"args": [{"class_name": "__keras_tensor__", "config": {"shape": [null, 4, 4, 1152], "dtype": "float32", "keras_history": ["block6c_expand_conv", 0, 0]}}], "kwargs": {"mask": null}}]}, {"class_name": "Activation", "config": {"name": "block6c_expand_activation", "trainable": true, "dtype": {"class_name": "DTypePolicy", "config": {"name": "float32"}, "shared_object_id": 132965955152160}, "activation": "silu"}, "build_config": {"input_shape": [null, 4, 4, 1152]}, "name": "block6c_expand_activation", "inbound_nodes": [{"args": [{"class_name": "__keras_tensor__", "config": {"shape": [null, 4, 4, 1152], "dtype": "float32", "keras_history": ["block6c_expand_bn", 0, 0]}}], "kwargs": {}}]}, {"class_name": "DepthwiseConv2D", "config": {"name": "block6c_dwconv2", "trainable": true, "dtype": {"class_name": "DTypePolicy", "config": {"name": "float32"}, "shared_object_id": 132965955152160}, "depth_multiplier": 1, "kernel_size": [3, 3], "strides": [1, 1], "padding": "same", "data_format": "channels_last", "dilation_rate": [1, 1], "activation": "linear", "use_bias": false, "depthwise_initializer": {"class_name": "VarianceScaling", "config": {"scale": 2.0, "mode": "fan_out", "distribution": "truncated_normal", "seed": null}}, "bias_initializer": {"class_name": "Zeros", "config": {}}, "depthwise_regularizer": null, "bias_regularizer": null, "activity_regularizer": null, "depthwise_constraint": null, "bias_constraint": null}, "build_config": {"input_shape": [null, 4, 4, 1152]}, "name": "block6c_dwconv2", "inbound_nodes": [{"args": [{"class_name": "__keras_tensor__", "config": {"shape": [null, 4, 4, 1152], "dtype": "float32", "keras_history": ["block6c_expand_activation", 0, 0]}}], "kwargs": {}}]}, {"class_name": "BatchNormalization", "config": {"name": "block6c_bn", "trainable": true, "dtype": {"class_name": "DTypePolicy", "config": {"name": "float32"}, "shared_object_id": 132965955152160}, "axis": 3, "momentum": 0.9, "epsilon": 0.001, "center": true, "scale": true, "beta_initializer": {"class_name": "Zeros", "config": {}}, "gamma_initializer": {"class_name": "Ones", "config": {}}, "moving_mean_initializer": {"class_name": "Zeros", "config": {}}, "moving_variance_initializer": {"class_name": "Ones", "config": {}}, "beta_regularizer": null, "gamma_regularizer": null, "beta_constraint": null, "gamma_constraint": null, "synchronized": false}, "build_config": {"input_shape": [null, 4, 4, 1152]}, "name": "block6c_bn", "inbound_nodes": [{"args": [{"class_name": "__keras_tensor__", "config": {"shape": [null, 4, 4, 1152], "dtype": "float32", "keras_history": ["block6c_dwconv2", 0, 0]}}], "kwargs": {"mask": null}}]}, {"class_name": "Activation", "config": {"name": "block6c_activation", "trainable": true, "dtype": {"class_name": "DTypePolicy", "config": {"name": "float32"}, "shared_object_id": 132965955152160}, "activation": "silu"}, "build_config": {"input_shape": [null, 4, 4, 1152]}, "name": "block6c_activation", "inbound_nodes": [{"args": [{"class_name": "__keras_tensor__", "config": {"shape": [null, 4, 4, 1152], "dtype": "float32", "keras_history": ["block6c_bn", 0, 0]}}], "kwargs": {}}]}, {"class_name": "GlobalAveragePooling2D", "config": {"name": "block6c_se_squeeze", "trainable": true, "dtype": {"class_name": "DTypePolicy", "config": {"name": "float32"}, "shared_object_id": 132965955152160}, "data_format": "channels_last", "keepdims": false}, "build_config": {"input_shape": [null, 4, 4, 1152]}, "name": "block6c_se_squeeze", "inbound_nodes": [{"args": [{"class_name": "__keras_tensor__", "config": {"shape": [null, 4, 4, 1152], "dtype": "float32", "keras_history": ["block6c_activation", 0, 0]}}], "kwargs": {}}]}, {"class_name": "Reshape", "config": {"name": "block6c_se_reshape", "trainable": true, "dtype": {"class_name": "DTypePolicy", "config": {"name": "float32"}, "shared_object_id": 132965955152160}, "target_shape": [1, 1, 1152]}, "build_config": {"input_shape": [null, 1152]}, "name": "block6c_se_reshape", "inbound_nodes": [{"args": [{"class_name": "__keras_tensor__", "config": {"shape": [null, 1152], "dtype": "float32", "keras_history": ["block6c_se_squeeze", 0, 0]}}], "kwargs": {}}]}, {"class_name": "Conv2D", "config": {"name": "block6c_se_reduce", "trainable": true, "dtype": {"class_name": "DTypePolicy", "config": {"name": "float32"}, "shared_object_id": 132965955152160}, "filters": 48, "kernel_size": [1, 1], "strides": [1, 1], "padding": "same", "data_format": "channels_last", "dilation_rate": [1, 1], "groups": 1, "activation": "silu", "use_bias": true, "kernel_initializer": {"class_name": "VarianceScaling", "config": {"scale": 2.0, "mode": "fan_out", "distribution": "truncated_normal", "seed": null}}, "bias_initializer": {"class_name": "Zeros", "config": {}}, "kernel_regularizer": null, "bias_regularizer": null, "activity_regularizer": null, "kernel_constraint": null, "bias_constraint": null}, "build_config": {"input_shape": [null, 1, 1, 1152]}, "name": "block6c_se_reduce", "inbound_nodes": [{"args": [{"class_name": "__keras_tensor__", "config": {"shape": [null, 1, 1, 1152], "dtype": "float32", "keras_history": ["block6c_se_reshape", 0, 0]}}], "kwargs": {}}]}, {"class_name": "Conv2D", "config": {"name": "block6c_se_expand", "trainable": true, "dtype": {"class_name": "DTypePolicy", "config": {"name": "float32"}, "shared_object_id": 132965955152160}, "filters": 1152, "kernel_size": [1, 1], "strides": [1, 1], "padding": "same", "data_format": "channels_last", "dilation_rate": [1, 1], "groups": 1, "activation": "sigmoid", "use_bias": true, "kernel_initializer": {"class_name": "VarianceScaling", "config": {"scale": 2.0, "mode": "fan_out", "distribution": "truncated_normal", "seed": null}}, "bias_initializer": {"class_name": "Zeros", "config": {}}, "kernel_regularizer": null, "bias_regularizer": null, "activity_regularizer": null, "kernel_constraint": null, "bias_constraint": null}, "build_config": {"input_shape": [null, 1, 1, 48]}, "name": "block6c_se_expand", "inbound_nodes": [{"args": [{"class_name": "__keras_tensor__", "config": {"shape": [null, 1, 1, 48], "dtype": "float32", "keras_history": ["block6c_se_reduce", 0, 0]}}], "kwargs": {}}]}, {"class_name": "Multiply", "config": {"name": "block6c_se_excite", "trainable": true, "dtype": {"class_name": "DTypePolicy", "config": {"name": "float32"}, "shared_object_id": 132965955152160}}, "build_config": {"input_shape": [[null, 4, 4, 1152], [null, 1, 1, 1152]]}, "name": "block6c_se_excite", "inbound_nodes": [{"args": [[{"class_name": "__keras_tensor__", "config": {"shape": [null, 4, 4, 1152], "dtype": "float32", "keras_history": ["block6c_activation", 0, 0]}}, {"class_name": "__keras_tensor__", "config": {"shape": [null, 1, 1, 1152], "dtype": "float32", "keras_history": ["block6c_se_expand", 0, 0]}}]], "kwargs": {}}]}, {"class_name": "Conv2D", "config": {"name": "block6c_project_conv", "trainable": true, "dtype": {"class_name": "DTypePolicy", "config": {"name": "float32"}, "shared_object_id": 132965955152160}, "filters": 192, "kernel_size": [1, 1], "strides": [1, 1], "padding": "same", "data_format": "channels_last", "dilation_rate": [1, 1], "groups": 1, "activation": "linear", "use_bias": false, "kernel_initializer": {"class_name": "VarianceScaling", "config": {"scale": 2.0, "mode": "fan_out", "distribution": "truncated_normal", "seed": null}}, "bias_initializer": {"class_name": "Zeros", "config": {}}, "kernel_regularizer": null, "bias_regularizer": null, "activity_regularizer": null, "kernel_constraint": null, "bias_constraint": null}, "build_config": {"input_shape": [null, 4, 4, 1152]}, "name": "block6c_project_conv", "inbound_nodes": [{"args": [{"class_name": "__keras_tensor__", "config": {"shape": [null, 4, 4, 1152], "dtype": "float32", "keras_history": ["block6c_se_excite", 0, 0]}}], "kwargs": {}}]}, {"class_name": "BatchNormalization", "config": {"name": "block6c_project_bn", "trainable": true, "dtype": {"class_name": "DTypePolicy", "config": {"name": "float32"}, "shared_object_id": 132965955152160}, "axis": 3, "momentum": 0.9, "epsilon": 0.001, "center": true, "scale": true, "beta_initializer": {"class_name": "Zeros", "config": {}}, "gamma_initializer": {"class_name": "Ones", "config": {}}, "moving_mean_initializer": {"class_name": "Zeros", "config": {}}, "moving_variance_initializer": {"class_name": "Ones", "config": {}}, "beta_regularizer": null, "gamma_regularizer": null, "beta_constraint": null, "gamma_constraint": null, "synchronized": false}, "build_config": {"input_shape": [null, 4, 4, 192]}, "name": "block6c_project_bn", "inbound_nodes": [{"args": [{"class_name": "__keras_tensor__", "config": {"shape": [null, 4, 4, 192], "dtype": "float32", "keras_history": ["block6c_project_conv", 0, 0]}}], "kwargs": {"mask": null}}]}, {"class_name": "Dropout", "config": {"name": "block6c_drop", "trainable": true, "dtype": {"class_name": "DTypePolicy", "config": {"name": "float32"}, "shared_object_id": 132965955152160}, "rate": 0.14285714285714285, "seed": null, "noise_shape": [null, 1, 1, 1]}, "build_config": {"input_shape": [null, 4, 4, 192]}, "name": "block6c_drop", "inbound_nodes": [{"args": [{"class_name": "__keras_tensor__", "config": {"shape": [null, 4, 4, 192], "dtype": "float32", "keras_hi…
ype": "float32"}, {"name": "layers/batch_normalization_5/vars/0", "shape": [32], "dtype": "float32"}, {"name": "layers/batch_normalization_5/vars/1", "shape": [32], "dtype": "float32"}, {"name": "layers/batch_normalization_5/vars/2", "shape": [32], "dtype": "float32"}, {"name": "layers/batch_normalization_5/vars/3", "shape": [32], "dtype": "float32"}, {"name": "layers/batch_normalization_50/vars/0", "shape": [1152], "dtype": "float32"}, {"name": "layers/batch_normalization_50/vars/1", "shape": [1152], "dtype": "float32"}, {"name": "layers/batch_normalization_50/vars/2", "shape": [1152], "dtype": "float32"}, {"name": "layers/batch_normalization_50/vars/3", "shape": [1152], "dtype": "float32"}, {"name": "layers/batch_normalization_51/vars/0", "shape": [192], "dtype": "float32"}, {"name": "layers/batch_normalization_51/vars/1", "shape": [192], "dtype": "float32"}, {"name": "layers/batch_normalization_51/vars/2", "shape": [192], "dtype": "float32"}, {"name": "layers/batch_normalization_51/vars/3", "shape": [192], "dtype": "float32"}, {"name": "layers/batch_normalization_52/vars/0", "shape": [1152], "dtype": "float32"}, {"name": "layers/batch_normalization_52/vars/1", "shape": [1152], "dtype": "float32"}, {"name": "layers/batch_normalization_52/vars/2", "shape": [1152], "dtype": "float32"}, {"name": "layers/batch_normalization_52/vars/3", "shape": [1152], "dtype": "float32"}, {"name": "layers/batch_normalization_53/vars/0", "shape": [1152], "dtype": "float32"}, {"name": "layers/batch_normalization_53/vars/1", "shape": [1152], "dtype": "float32"}, {"name": "layers/batch_normalization_53/vars/2", "shape": [1152], "dtype": "float32"}, {"name": "layers/batch_normalization_53/vars/3", "shape": [1152], "dtype": "float32"}, {"name": "layers/batch_normalization_54/vars/0", "shape": [192], "dtype": "float32"}, {"name": "layers/batch_normalization_54/vars/1", "shape": [192], "dtype": "float32"}, {"name": "layers/batch_normalization_54/vars/2", "shape": [192], "dtype": "float32"}, {"name": "layers/batch_normalization_54/vars/3", "shape": [192], "dtype": "float32"}, {"name": "layers/batch_normalization_55/vars/0", "shape": [1152], "dtype": "float32"}, {"name": "layers/batch_normalization_55/vars/1", "shape": [1152], "dtype": "float32"}, {"name": "layers/batch_normalization_55/vars/2", "shape": [1152], "dtype": "float32"}, {"name": "layers/batch_normalization_55/vars/3", "shape": [1152], "dtype": "float32"}, {"name": "layers/batch_normalization_56/vars/0", "shape": [1152], "dtype": "float32"}, {"name": "layers/batch_normalization_56/vars/1", "shape": [1152], "dtype": "float32"}, {"name": "layers/batch_normalization_56/vars/2", "shape": [1152], "dtype": "float32"}, {"name": "layers/batch_normalization_56/vars/3", "shape": [1152], "dtype": "float32"}, {"name": "layers/batch_normalization_57/vars/0", "shape": [192], "dtype": "float32"}, {"name": "layers/batch_normalization_57/vars/1", "shape": [192], "dtype": "float32"}, {"name": "layers/batch_normalization_57/vars/2", "shape": [192], "dtype": "float32"}, {"name": "layers/batch_normalization_57/vars/3", "shape": [192], "dtype": "float32"}, {"name": "layers/batch_normalization_58/vars/0", "shape": [1280], "dtype": "float32"}, {"name": "layers/batch_normalization_58/vars/1", "shape": [1280], "dtype": "float32"}, {"name": "layers/batch_normalization_58/vars/2", "shape": [1280], "dtype": "float32"}, {"name": "layers/batch_normalization_58/vars/3", "shape": [1280], "dtype": "float32"}, {"name": "layers/batch_normalization_6/vars/0", "shape": [128], "dtype": "float32"}, {"name": "layers/batch_normalization_6/vars/1", "shape": [128], "dtype": "float32"}, {"name": "layers/batch_normalization_6/vars/2", "shape": [128], "dtype": "float32"}, {"name": "layers/batch_normalization_6/vars/3", "shape": [128], "dtype": "float32"}, {"name": "layers/batch_normalization_7/vars/0", "shape": [48], "dtype": "float32"}, {"name": "layers/batch_normalization_7/vars/1", "shape": [48], "dtype": "float32"}, {"name": "layers/batch_normalization_7/vars/2", "shape": [48], "dtype": "float32"}, {"name": "layers/batch_normalization_7/vars/3", "shape": [48], "dtype": "float32"}, {"name": "layers/batch_normalization_8/vars/0", "shape": [192], "dtype": "float32"}, {"name": "layers/batch_normalization_8/vars/1", "shape": [192], "dtype": "float32"}, {"name": "layers/batch_normalization_8/vars/2", "shape": [192], "dtype": "float32"}, {"name": "layers/batch_normalization_8/vars/3", "shape": [192], "dtype": "float32"}, {"name": "layers/batch_normalization_9/vars/0", "shape": [48], "dtype": "float32"}, {"name": "layers/batch_normalization_9/vars/1", "shape": [48], "dtype": "float32"}, {"name": "layers/batch_normalization_9/vars/2", "shape": [48], "dtype": "float32"}, {"name": "layers/batch_normalization_9/vars/3", "shape": [48], "dtype": "float32"}, {"name": "layers/conv2d/vars/0", "shape": [3, 3, 3, 32], "dtype": "float32"}, {"name": "layers/conv2d_1/vars/0", "shape": [3, 3, 32, 16], "dtype": "float32"}, {"name": "layers/conv2d_10/vars/0", "shape": [1, 1, 48, 192], "dtype": "float32"}, {"name": "layers/conv2d_11/vars/0", "shape": [1, 1, 192, 12], "dtype": "float32"}, {"name": "layers/conv2d_11/vars/1", "shape": [12], "dtype": "float32"}, {"name": "layers/conv2d_12/vars/0", "shape": [1, 1, 12, 192], "dtype": "float32"}, {"name": "layers/conv2d_12/vars/1", "shape": [192], "dtype": "float32"}, {"name": "layers/conv2d_13/vars/0", "shape": [1, 1, 192, 96], "dtype": "float32"}, {"name": "layers/conv2d_14/vars/0", "shape": [1, 1, 96, 384], "dtype": "float32"}, {"name": "layers/conv2d_15/vars/0", "shape": [1, 1, 384, 24], "dtype": "float32"}, {"name": "layers/conv2d_15/vars/1", "shape": [24], "dtype": "float32"}, {"name": "layers/conv2d_16/vars/0", "shape": [1, 1, 24, 384], "dtype": "float32"}, {"name": "layers/conv2d_16/vars/1", "shape": [384], "dtype": "float32"}, {"name": "layers/conv2d_17/vars/0", "shape": [1, 1, 384, 96], "dtype": "float32"}, {"name": "layers/conv2d_18/vars/0", "shape": [1, 1, 96, 384], "dtype": "float32"}, {"name": "layers/conv2d_19/vars/0", "shape": [1, 1, 384, 24], "dtype": "float32"}, {"name": "layers/conv2d_19/vars/1", "shape": [24], "dtype": "float32"}, {"name": "layers/conv2d_2/vars/0", "shape": [3, 3, 16, 64], "dtype": "float32"}, {"name": "layers/conv2d_20/vars/0", "shape": [1, 1, 24, 384], "dtype": "float32"}, {"name": "layers/conv2d_20/vars/1", "shape": [384], "dtype": "float32"}, {"name": "layers/conv2d_21/vars/0", "shape": [1, 1, 384, 96], "dtype": "float32"}, {"name": "layers/conv2d_22/vars/0", "shape": [1, 1, 96, 576], "dtype": "float32"}, {"name": "layers/conv2d_23/vars/0", "shape": [1, 1, 576, 24], "dtype": "float32"}, {"name": "layers/conv2d_23/vars/1", "shape": [24], "dtype": "float32"}, {"name": "layers/conv2d_24/vars/0", "shape": [1, 1, 24, 576], "dtype": "float32"}, {"name": "layers/conv2d_24/vars/1", "shape": [576], "dtype": "float32"}, {"name": "layers/conv2d_25/vars/0", "shape": [1, 1, 576, 112], "dtype": "float32"}, {"name": "layers/conv2d_26/vars/0", "shape": [1, 1, 112, 672], "dtype": "float32"}, {"name": "layers/conv2d_27/vars/0", "shape": [1, 1, 672, 28], "dtype": "float32"}, {"name": "layers/conv2d_27/vars/1", "shape": [28], "dtype": "float32"}, {"name": "layers/conv2d_28/vars/0", "shape": [1, 1, 28, 672], "dtype": "float32"}, {"name": "layers/conv2d_28/vars/1", "shape": [672], "dtype": "float32"}, {"name": "layers/conv2d_29/vars/0", "shape": [1, 1, 672, 112], "dtype": "float32"}, {"name": "layers/conv2d_3/vars/0", "shape": [1, 1, 64, 32], "dtype": "float32"}, {"name": "layers/conv2d_30/vars/0", "shape": [1, 1, 112, 672], "dtype": "float32"}, {"name": "layers/conv2d_31/vars/0", "shape": [1, 1, 672, 28], "dtype": "float32"}, {"name": "layers/conv2d_31/vars/1", "shape": [28], "dtype": "float32"}, {"name": "layers/conv2d_32/vars/0", "shape": [1, 1, 28, 672], "dtype": "float32"}, {"name": "layers/conv2d_32/vars/1", "shape": [672], "dtype": "float32"}, {"name": "layers/conv2d_33/vars/0", "shape": [1, 1, 672, 112], "dtype": "float32"}, {"name": "layers/conv2d_34/vars/0", "shape": [1, 1, 112, 672], "dtype": "float32"}, {"name": "layers/conv2d_35/vars/0", "shape": [1, 1, 672, 28], "dtype": "float32"}, {"name": "layers/conv2d_35/vars/1", "shape": [28], "dtype": "float32"}, {"name": "layers/conv2d_36/vars/0", "shape": [1, 1, 28, 672], "dtype": "float32"}, {"name": "layers/conv2d_36/vars/1", "shape": [672], "dtype": "float32"}, {"name": "layers/conv2d_37/vars/0", "shape": [1, 1, 672, 112], "dtype": "float32"}, {"name": "layers/conv2d_38/vars/0", "shape": [1, 1, 112, 672], "dtype": "float32"}, {"name": "layers/conv2d_39/vars/0", "shape": [1, 1, 672, 28], "dtype": "float32"}, {"name": "layers/conv2d_39/vars/1", "shape": [28], "dtype": "float32"}, {"name": "layers/conv2d_4/vars/0", "shape": [3, 3, 32, 128], "dtype": "float32"}, {"name": "layers/conv2d_40/vars/0", "shape": [1, 1, 28, 672], "dtype": "float32"}, {"name": "layers/conv2d_40/vars/1", "shape": [672], "dtype": "float32"}, {"name": "layers/conv2d_41/vars/0", "shape": [1, 1, 672, 112], "dtype": "float32"}, {"name": "layers/conv2d_42/vars/0", "shape": [1, 1, 112, 672], "dtype": "float32"}, {"name": "layers/conv2d_43/vars/0", "shape": [1, 1, 672, 28], "dtype": "float32"}, {"name": "layers/conv2d_43/vars/1", "shape": [28], "dtype": "float32"}, {"name": "layers/conv2d_44/vars/0", "shape": [1, 1, 28, 672], "dtype": "float32"}, {"name": "layers/conv2d_44/vars/1", "shape": [672], "dtype": "float32"}, {"name": "layers/conv2d_45/vars/0", "shape": [1, 1, 672, 192], "dtype": "float32"}, {"name": "layers/conv2d_46/vars/0", "shape": [1, 1, 192, 1152], "dtype": "float32"}, {"name": "layers/conv2d_47/vars/0", "shape": [1, 1, 1152, 48], "dtype": "float32"}, {"name": "layers/conv2d_47/vars/1", "shape": [48], "dtype": "float32"}, {"name": "layers/conv2d_48/vars/0", "shape": [1, 1, 48, 1152], "dtype": "float32"}, {"name": "layers/conv2d_48/vars/1", "shape": [1152], "dtype": "float32"}, {"name": "layers/conv2d_49/vars/0", "shape": [1, 1, 1152, 192], "dtype": "float32"}, {"name": "layers/conv2d_5/vars/0", "shape": [1, 1, 128, 32], "dtype": "float32"}, {"name": "layers/conv2d_50/vars/0", "shape": [1, 1, 192, 1152], "dtype": "float32"}, {"name": "layers/conv2d_51/vars/0", "shape": [1, 1, 1152, 48], "dtype": "float32"}, {"name": "layers/conv2d_51/vars/1", "shape": [48], "dtype": "float32"}, {"name": "layers/conv2d_52/vars/0", "shape": [1, 1, 48, 1152], "dtype": "float32"}, {"name": "layers/conv2d_52/vars/1", "shape": [1152], "dtype": "float32"}, {"name": "layers/conv2d_53/vars/0", "shape": [1, 1, 1152, 192], "dtype": "float32"}, {"name": "layers/conv2d_54/vars/0", "shape": [1, 1, 192, 1152], "dtype": "float32"}, {"name": "layers/conv2d_55/vars/0", "shape": [1, 1, 1152, 48], "dtype": "float32"}, {"name": "layers/conv2d_55/vars/1", "shape": [48], "dtype": "float32"}, {"name": "layers/conv2d_56/vars/0", "shape": [1, 1, 48, 1152], "dtype": "float32"}, {"name": "layers/conv2d_56/vars/1", "shape": [1152], "dtype": "float32"}, {"name": "layers/conv2d_57/vars/0", "shape": [1, 1, 1152, 192], "dtype": "float32"}, {"name": "layers/conv2d_58/vars/0", "shape": [1, 1, 192, 1152], "dtype": "float32"}, {"name": "layers/conv2d_59/vars/0", "shape": [1, 1, 1152, 48], "dtype": "float32"}, {"name": "layers/conv2d_59/vars/1", "shape": [48], "dtype": "float32"}, {"name": "layers/conv2d_6/vars/0", "shape": [3, 3, 32, 128], "dtype": "float32"}, {"name": "layers/conv2d_60/vars/0", "shape": [1, 1, 48, 1152], "dtype": "float32"}, {"name": "layers/conv2d_60/vars/1", "shape": [1152], "dtype": "float32"}, {"name": "layers/conv2d_61/vars/0", "shape": [1, 1, 1152, 192], "dtype": "float32"}, {"name": "layers/conv2d_62/vars/0", "shape": [1, 1, 192, 1152], "dtype": "float32"}, {"name": "layers/conv2d_63/vars/0", "shape": [1, 1, 1152, 48], "dtype": "float32"}, {"name": "layers/conv2d_63/vars/1", "shape": [48], "dtype": "float32"}, {"name": "layers/conv2d_64/vars/0", "shape": [1, 1, 48, 1152], "dtype": "float32"}, {"name": "layers/conv2d_64/vars/1", "shape": [1152], "dtype": "float32"}, {"name": "layers/conv2d_65/vars/0", "shape": [1, 1, 1152, 192], "dtype": "float32"}, {"name": "layers/conv2d_66/vars/0", "shape": [1, 1, 192, 1152], "dtype": "float32"}, {"name": "layers/conv2d_67/vars/0", "shape": [1, 1, 1152, 48], "dtype": "float32"}, {"name": "layers/conv2d_67/vars/1", "shape": [48], "dtype": "float32"}, {"name": "layers/conv2d_68/vars/0", "shape": [1, 1, 48, 1152], "dtype": "float32"}, {"name": "layers/conv2d_68/vars/1", "shape": [1152], "dtype": "float32"}, {"name": "layers/conv2d_69/vars/0", "shape": [1, 1, 1152, 192], "dtype": "float32"}, {"name": "layers/conv2d_7/vars/0", "shape": [1, 1, 128, 48], "dtype": "float32"}, {"name": "layers/conv2d_70/vars/0", "shape": [1, 1, 192, 1152], "dtype": "float32"}, {"name": "layers/conv2d_71/vars/0", "shape": [1, 1, 1152, 48], "dtype": "float32"}, {"name": "layers/conv2d_71/vars/1", "shape": [48], "dtype": "float32"}, {"name": "layers/conv2d_72/vars/0", "shape": [1, 1, 48, 1152], "dtype": "float32"}, {"name": "layers/conv2d_72/vars/1", "shape": [1152], "dtype": "float32"}, {"name": "layers/conv2d_73/vars/0", "shape": [1, 1, 1152, 192], "dtype": "float32"}, {"name": "layers/conv2d_74/vars/0", "shape": [1, 1, 192, 1280], "dtype": "float32"}, {"name": "layers/conv2d_8/vars/0", "shape": [3, 3, 48, 192], "dtype": "float32"}, {"name": "layers/conv2d_9/vars/0", "shape": [1, 1, 192, 48], "dtype": "float32"}, {"name": "layers/dense/vars/0", "shape": [1280, 1], "dtype": "float32"}, {"name": "layers/dense/vars/1", "shape": [1], "dtype": "float32"}, {"name": "layers/depthwise_conv2d/vars/0", "shape": [3, 3, 192, 1], "dtype": "float32"}, {"name": "layers/depthwise_conv2d_1/vars/0", "shape": [3, 3, 384, 1], "dtype": "float32"}, {"name": "layers/depthwise_conv2d_10/vars/0", "shape": [3, 3, 1152, 1], "dtype": "float32"}, {"name": "layers/depthwise_conv2d_11/vars/0", "shape": [3, 3, 1152, 1], "dtype": "float32"}, {"name": "layers/depthwise_conv2d_12/vars/0", "shape": [3, 3, 1152, 1], "dtype": "float32"}, {"name": "layers/depthwise_conv2d_13/vars/0", "shape": [3, 3, 1152, 1], "dtype": "float32"}, {"name": "layers/depthwise_conv2d_14/vars/0", "shape": [3, 3, 1152, 1], "dtype": "float32"}, {"name": "layers/depthwise_conv2d_15/vars/0", "shape": [3, 3, 1152, 1], "dtype": "float32"}, {"name": "layers/depthwise_conv2d_2/vars/0", "shape": [3, 3, 384, 1], "dtype": "float32"}, {"name": "layers/depthwise_conv2d_3/vars/0", "shape": [3, 3, 576, 1], "dtype": "float32"}, {"name": "layers/depthwise_conv2d_4/vars/0", "shape": [3, 3, 672, 1], "dtype": "float32"}, {"name": "layers/depthwise_conv2d_5/vars/0", "shape": [3, 3, 672, 1], "dtype": "float32"}, {"name": "layers/depthwise_conv2d_6/vars/0", "shape": [3, 3, 672, 1], "dtype": "float32"}, {"name": "layers/depthwise_conv2d_7/vars/0", "shape": [3, 3, 672, 1], "dtype": "float32"}, {"name": "layers/depthwise_conv2d_8/vars/0", "shape": [3, 3, 672, 1], "dtype": "float32"}, {"name": "layers/depthwise_conv2d_9/vars/0", "shape": [3, 3, 1152, 1], "dtype": "float32"}, {"name": "optimizer/vars/0", "shape": [], "dtype": "int32"}, {"name": "optimizer/vars/1", "shape": [], "dtype": "float32"}, {"name": "optimizer/vars/10", "shape": [16], "dtype": "float32"}, {"name": "optimizer/vars/100", "shape": [1, 1, 384, 24], "dtype": "float32"}, {"name": "optimizer/vars/101", "shape": [1, 1, 384, 24], "dtype": "float32"}, {"name": "optimizer/vars/102", "shape": [24], "dtype": "float32"}, {"name": "optimizer/vars/103", "shape": [24], "dtype": "float32"}, {"name": "optimizer/vars/104", "shape": [1, 1, 24, 384], "dtype": "float32"}, {"name": "optimizer/vars/105", "shape": [1, 1, 24, 384], "dtype": "float32"}, {"name": "optimizer/vars/106", "shape": [384], "dtype": "float32"}, {"name": "optimizer/vars/107", "shape": [384], "dtype": "float32"}, {"name": "optimizer/vars/108", "shape": [1, 1, 384, 96], "dtype": "float32"}, {"name": "optimizer/vars/109", "shape": [1, 1, 384, 96], "dtype": "float32"}, {"name": "optimizer/vars/11", "shape": [16], "dtype": "float32"}, {"name": "optimizer/vars/110", "shape": [96], "dtype": "float32"}, {"name": "optimizer/vars/111", "shape": [96], "dtype": "float32"}, {"name": "optimizer/vars/112", "shape": [96], "dtype": "float32"}, {"name": "optimizer/vars/113", "shape": [96], "dtype": "float32"}, {"name": "optimizer/vars/114", "shape": [1, 1, 96, 384], "dtype": "float32"}, {"name": "optimizer/vars/115", "shape": [1, 1, 96, 384], "dtype": "float32"}, {"name": "optimizer/vars/116", "shape": [384], "dtype": "float32"}, {"name": "optimizer/vars/117", "shape": [384], "dtype": "float32"}, {"name": "optimizer/vars/118", "shape": [384], "dtype": "float32"}, {"name": "optimizer/vars/119", "shape": [384], "dtype": "float32"}, {"name": "optimizer/vars/12", "shape": [16], "dtype": "float32"}, {"name": "optimizer/vars/120", "shape": [3, 3, 384, 1], "dtype": "float32"}, {"name": "optimizer/vars/121", "shape": [3, 3, 384, 1], "dtype": "float32"}, {"name": "optimizer/vars/122", "shape": [384], "dtype": "float32"}, {"name": "optimizer/vars/123", "shape": [384], "dtype": "float32"}, {"name": "optimizer/vars/124", "shape": [384], "dtype": "float32"}, {"name": "optimizer/vars/125", "shape": [384], "dtype": "float32"}, {"name": "optimizer/vars/126", "shape": [1, 1, 384, 24], "dtype": "float32"}, {"name": "optimizer/vars/127", "shape": [1, 1, 384, 24], "dtype": "float32"}, {"name": "optimizer/vars/128", "shape": [24], "dtype": "float32"}, {"name": "optimizer/vars/129", "shape": [24], "dtype": "float32"}, {"name": "optimizer/vars/13", "shape": [16], "dtype": "float32"}, {"name": "optimizer/vars/130", "shape": [1, 1, 24, 384], "dtype": "float32"}, {"name": "optimizer/vars/131", "shape": [1, 1, 24, 384], "dtype": "float32"}, {"name": "optimizer/vars/132", "shape": [384], "dtype": "float32"}, {"name": "optimizer/vars/133", "shape": [384], "dtype": "float32"}, {"name": "optimizer/vars/134", "shape": [1, 1, 384, 96], "dtype": "float32"}, {"name": "optimizer/vars/135", "shape": [1, 1, 384, 96], "dtype": "float32"}, {"name": "optimizer/vars/136", "shape": [96], "dtype": "float32"}, {"name": "optimizer/vars/137", "shape": [96], "dtype": "float32"}, {"name": "optimizer/vars/138", "shape": [96], "dtype": "float32"}, {"name": "optimizer/vars/139", "shape": [96], "dtype": "float32"}, {"name": "optimizer/vars/14", "shape": [3, 3, 16, 64], "dtype": "float32"}, {"name": "optimizer/vars/140", "shape": [1, 1, 96, 576], "dtype": "float32"}, {"name": "optimizer/vars/141", "shape": [1, 1, 96, 576], "dtype": "float32"}, {"name": "optimizer/vars/142", "shape": [576], "dtype": "float32"}, {"name": "optimizer/vars/143", "shape": [576], "dtype": "float32"}, {"name": "optimizer/vars/144", "shape": [576], "dtype": "float32"}, {"name": "optimizer/vars/145", "shape": [576], "dtype": "float32"}, {"name": "optimizer/vars/146", "shape": [3, 3, 576, 1], "dtype": "float32"}, {"name": "optimizer/vars/147", "shape": [3, 3, 576, 1], "dtype": "float32"}, {"name": "optimizer/vars/148", "shape": [576], "dtype": "float32"}, {"name": "optimizer/vars/149", "shape": [576], "dtype": "float32"}, {"name": "optimizer/vars/15", "shape": [3, 3, 16, 64], "dtype": "float32"}, {"name": "optimizer/vars/150", "shape": [576], "dtype": "float32"}, {"name": "optimizer/vars/151", "shape": [576], "dtype": "float32"}, {"name": "optimizer/vars/152", "shape": [1, 1, 576, 24], "dtype": "float32"}, {"name": "optimizer/vars/153", "shape": [1, 1, 576, 24], "dtype": "float32"}, {"name": "optimizer/vars/154", "shape": [24], "dtype": "float32"}, {"name": "optimizer/vars/155", "shape": [24], "dtype": "float32"}, {"name": "optimizer/vars/156", "shape": [1, 1, 24, 576], "dtype": "float32"}, {"name": "optimizer/vars/157", "shape": [1, 1, 24, 576], "dtype": "float32"}, {"name": "optimizer/vars/158", "shape": [576], "dtype": "float32"}, {"name": "optimizer/vars/159", "shape": [576], "dtype": "float32"}, {"name": "optimizer/vars/16", "shape": [64], "dtype": "float32"}, {"name": "optimizer/vars/160", "shape": [1, 1, 576, 112], "dtype": "float32"}, {"name": "optimizer/vars/161", "shape": [1, 1, 576, 112], "dtype": "float32"}, {"name": "optimizer/vars/162", "shape": [112], "dtype": "float32"}, {"name": "optimizer/vars/163", "shape": [112], "dtype": "float32"}, {"name": "optimizer/vars/164", "shape": [112], "dtype": "float32"}, {"name": "optimizer/vars/165", "shape": [112], "dtype": "float32"}, {"name": "optimizer/vars/166", "shape": [1, 1, 112, 672], "dtype": "float32"}, {"name": "optimizer/vars/167", "shape": [1, 1, 112, 672], "dtype": "float32"}, {"name": "optimizer/vars/168", "shape": [672], "dtype": "float32"}, {"name": "optimizer/vars/169", "shape": [672], "dtype": "float32"}, {"name": "optimizer/vars/17", "shape": [64], "dtype": "float32"}, {"name": "optimizer/vars/170", "shape": [672], "dtype": "float32"}, {"name": "optimizer/vars/171", "shape": [672], "dtype": "float32"}, {"name": "optimizer/vars/172", "shape": [3, 3, 672, 1], "dtype": "float32"}, {"name": "optimizer/vars/173", "shape": [3, 3, 672, 1], "dtype": "float32"}, {"name": "optimizer/vars/174", "shape": [672], "dtype": "float32"}, {"name": "optimizer/vars/175", "shape": [672], "dtype": "float32"}, {"name": "optimizer/vars/176", "shape": [672], "dtype": "float32"}, {"name": "optimizer/vars/177", "shape": [672], "dtype": "float32"}, {"name": "optimizer/vars/178", "shape": [1, 1, 672, 28], "dtype": "float32"}, {"name": "optimizer/vars/179", "shape": [1, 1, 672, 28], "dtype": "float32"}, {"name": "optimizer/vars/18", "shape": [64], "dtype": "float32"}, {"name": "optimizer/vars/180", "shape": [28], "dtype": "float32"}, {"name": "optimizer/vars/181", "shape": [28], "dtype": "float32"}, {"name": "optimizer/vars/182", "shape": [1, 1, 28, 672], "dtype": "float32"}, {"name": "optimizer/vars/183", "shape": [1, 1, 28, 672], "dtype": "float32"}, {"name": "optimizer/vars/184", "shape": [672], "dtype": "float32"}, {"name": "optimizer/vars/185", "shape": [672], "dtype": "float32"}, {"name": "optimizer/vars/186", "shape": [1, 1, 672, 112], "dtype": "float32"}, {"name": "optimizer/vars/187", "shape": [1, 1, 672, 112], "dtype": "float32"}, {"name": "optimizer/vars/188", "shape": [112], "dtype": "float32"}, {"name": "optimizer/vars/189", "shape": [112], "dtype": "float32"}, {"name": "optimizer/vars/19", "shape": [64], "dtype": "float32"}, {"name": "optimizer/vars/190", "shape": [112], "dtype": "float32"}, {"name": "optimizer/vars/191", "shape": [112], "dtype": "float32"}, {"name": "optimizer/vars/192", "shape": [1, 1, 112, 672], "dtype": "float32"}, {"name": "optimizer/vars/193", "shape": [1, 1, 112, 672], "dtype": "float32"}, {"name": "optimizer/vars/194", "shape": [672], "dtype": "float32"}, {"name": "optimizer/vars/195", "shape": [672], "dtype": "float32"}, {"name": "optimizer/vars/196", "shape": [672], "dtype": "float32"}, {"name": "optimizer/vars/197", "shape": [672], "dtype": "float32"}, {"name": "optimizer/vars/198", "shape": [3, 3, 672, 1], "dtype": "float32"}, {"name": "optimizer/vars/199", "shape": [3, 3, 672, 1], "dtype": "float32"}, {"name": "optimizer/vars/2", "shape": [3, 3, 3, 32], "dtype": "float32"}, {"name": "optimizer/vars/20", "shape": [1, 1, 64, 32], "dtype": "float32"}, {"name": "optimizer/vars/200", "shape": [672], "dtype": "float32"}, {"name": "optimizer/vars/201", "shape": [672], "dtype": "float32"}, {"name": "optimizer/vars/202", "shape": [672], "dtype": "float32"}, {"name": "optimizer/vars/203", "shape": [672], "dtype": "float32"}, {"name": "optimizer/vars/204", "shape": [1, 1, 672, 28], "dtype": "float32"}, {"name": "optimizer/vars/205", "shape": [1, 1, 672, 28], "dtype": "float32"}, {"name": "optimizer/vars/206", "shape": [28], "dtype": "float32"}, {"name": "optimizer/vars/207", "shape": [28], "dtype": "float32"}, {"name": "optimizer/vars/208", "shape": [1, 1, 28, 672], "dtype": "float32"}, {"name": "optimizer/vars/209", "shape": [1, 1, 28, 672], "dtype": "float32"}, {"name": "optimizer/vars/21", "shape": [1, 1, 64, 32], "dtype": "float32"}, {"name": "optimizer/vars/210", "shape": [672], "dtype": "float32"}, {"name": "optimizer/vars/211", "shape": [672], "dtype": "float32"}, {"name": "optimizer/vars/212", "shape": [1, 1, 672, 112], "dtype": "float32"}, {"name": "optimizer/vars/213", "shape": [1, 1, 672, 112], "dtype": "float32"}, {"name": "optimizer/vars/214", "shape": [112], "dtype": "float32"}, {"name": "optimizer/vars/215", "shape": [112], "dtype": "float32"}, {"name": "optimizer/vars/216", "shape": [112], "dtype": "float32"}, {"name": "optimizer/vars/217", "shape": [112], "dtype": "float32"}, {"name": "optimizer/vars/218", "shape": [1, 1, 112, 672], "dtype": "float32"}, {"name": "optimizer/vars/219", "shape": [1, 1, 112, 672], "dtype": "float32"}, {"name": "optimizer/vars/22", "shape": [32], "dtype": "float32"}, {"name": "optimizer/vars/220", "shape": [672], "dtype": "float32"}, {"name": "optimizer/vars/221", "shape": [672], "dtype": "float32"}, {"name": "optimizer/vars/222", "shape": [672], "dtype": "float32"}, {"name": "optimizer/vars/223", "shape": [672], "dtype": "float32"}, {"name": "optimizer/vars/224", "shape": [3, 3, 672, 1], "dtype": "float32"}, {"name": "optimizer/vars/225", "shape": [3, 3, 672, 1], "dtype": "float32"}, {"name": "optimizer/vars/226", "shape": [672], "dtype": "float32"}, {"name": "optimizer/vars/227", "shape": [672], "dtype": "float32"}, {"name": "optimizer/vars/228", "shape": [672], "dtype": "float32"}, {"name": "optimizer/vars/229", "shape": [672], "dtype": "float32"}, {"name": "optimizer/vars/23", "shape": [32], "dtype": "float32"}, {"name": "optimizer/vars/230", "shape": [1, 1, 672, 28], "dtype": "float32"}, {"name": "optimizer/vars/231", "shape": [1, 1, 672, 28], "dtype": "float32"}, {"name": "optimizer/vars/232", "shape": [28], "dtype": "float32"}, {"name": "optimizer/vars/233", "shape": [28], "dtype": "float32"}, {"name": "optimizer/vars/234", "shape": [1, 1, 28, 672], "dtype": "float32"}, {"name": "optimizer/vars/235", "shape": [1, 1, 28, 672], "dtype": "float32"}, {"name": "optimizer/vars/236", "shape": [672], "dtype": "float32"}, {"name": "optimizer/vars/237", "shape": [672], "dtype": "float32"}, {"name": "optimizer/vars/238", "shape": [1, 1, 672, 112], "dtype": "float32"}, {"name": "optimizer/vars/239", "shape": [1, 1, 672, 112], "dtype": "float32"}, {"name": "optimizer/vars/24", "shape": [32], "dtype": "float32"}, {"name": "optimizer/vars/240", "shape": [112], "dtype": "float32"}, {"name": "optimizer/vars/241", "shape": [112], "dtype": "float32"}, {"name": "optimizer/vars/242", "shape": [112], "dtype": "float32"}, {"name": "optimizer/vars/243", "shape": [112], "dtype": "float32"}, {"name": "optimizer/vars/244", "shape": [1, 1, 112, 672], "dtype": "float32"}, {"name": "optimizer/vars/245", "shape": [1, 1, 112, 672], "dtype": "float32"}, {"name": "optimizer/vars/246", "shape": [672], "dtype": "float32"}, {"name": "optimizer/vars/247", "shape": [672], "dtype": "float32"}, {"name": "optimizer/vars/248", "shape": [672], "dtype": "float32"}, {"name": "optimizer/vars/249", "shape": [672], "dtype": "float32"}, {"name": "optimizer/vars/25", "shape": [32], "dtype": "float32"}, {"name": "optimizer/vars/250", "shape": [3, 3, 672, 1], "dtype": "float32"}, {"name": "optimizer/vars/251", "shape": [3, 3, 672, 1], "dtype": "float32"}, {"name": "optimizer/vars/252", "shape": [672], "dtype": "float32"}, {"name": "optimizer/vars/253", "shape": [672], "dtype": "float32"}, {"name": "optimizer/vars/254", "shape": [672], "dtype": "float32"}, {"name": "optimizer/vars/255", "shape": [672], "dtype": "float32"}, {"name": "optimizer/vars/256", "shape": [1, 1, 672, 28], "dtype": "float32"}, {"name": "optimizer/vars/257", "shape": [1, 1, 672, 28], "dtype": "float32"}, {"name": "optimizer/vars/258", "shape": [28], "dtype": "float32"}, {"name": "optimizer/vars/259", "shape": [28], "dtype": "float32"}, {"name": "optimizer/vars/26", "shape": [3, 3, 32, 128], "dtype": "float32"}, {"name": "optimizer/vars/260", "shape": [1, 1, 28, 672], "dtype": "float32"}, {"name": "optimizer/vars/261", "shape": [1, 1, 28, 672], "dtype": "float32"}, {"name": "optimizer/vars/262", "shape": [672], "dtype": "float32"}, {"name": "optimizer/vars/263", "shape": [672], "dtype": "float32"}, {"name": "optimizer/vars/264", "shape": [1, 1, 672, 112], "dtype": "float32"}, {"name": "optimizer/vars/265", "shape": [1, 1, 672, 112], "dtype": "float32"}, {"name": "optimizer/vars/266", "shape": [112], "dtype": "float32"}, {"name": "optimizer/vars/267", "shape": [112], "dtype": "float32"}, {"name": "optimizer/vars/268", "shape": [112], "dtype": "float32"}, {"name": "optimizer/vars/269", "shape": [112], "dtype": "float32"}, {"name": "optimizer/vars/27", "shape": [3, 3, 32, 128], "dtype": "float32"}, {"name": "optimizer/vars/270", "shape": [1, 1, 112, 672], "dtype": "float32"}, {"name": "optimizer/vars/271", "shape": [1, 1, 112, 672], "dtype": "float32"}, {"name": "optimizer/vars/272", "shape": [672], "dtype": "float32"}, {"name": "optimizer/vars/273", "shape": [672], "dtype": "float32"}, {"name": "optimizer/vars/274", "shape": [672], "dtype": "float32"}, {"name": "optimizer/vars/275", "shape": [672], "dtype": "float32"}, {"name": "optimizer/vars/276", "shape": [3, 3, 672, 1], "dtype": "float32"}, {"name": "optimizer/vars/277", "shape": [3, 3, 672, 1], "dtype": "float32"}, {"name": "optimizer/vars/278", "shape": [672], "dtype": "float32"}, {"name": "optimizer/vars/279", "shape": [672], "dtype": "float32"}, {"name": "optimizer/vars/28", "shape": [128], "dtype": "float32"}, {"name": "optimizer/vars/280", "shape": [672], "dtype": "float32"}, {"name": "optimizer/vars/281", "shape": [672], "dtype": "float32"}, {"name": "optimizer/vars/282", "shape": [1, 1, 672, 28], "dtype": "float32"}, {"name": "optimizer/vars/283", "shape": [1, 1, 672, 28], "dtype": "float32"}, {"name": "optimizer/vars/284", "shape": [28], "dtype": "float32"}, {"name": "optimizer/vars/285", "shape": [28], "dtype": "float32"}, {"name": "optimizer/vars/286", "shape": [1, 1, 28, 672], "dtype": "float32"}, {"name": "optimizer/vars/287", "shape": [1, 1, 28, 672], "dtype": "float32"}, {"name": "optimizer/vars/288", "shape": [672], "dtype": "float32"}, {"name": "optimizer/vars/289", "shape": [672], "dtype": "float32"}, {"name": "optimizer/vars/29", "shape": [128], "dtype": "float32"}, {"name": "optimizer/vars/290", "shape": [1, 1, 672, 192], "dtype": "float32"}, {"name": "optimizer/vars/291", "shape": [1, 1, 672, 192], "dtype": "float32"}, {"name": "optimizer/vars/292", "shape": [192], "dtype": "float32"}, {"name": "optimizer/vars/293", "shape": [192], "dtype": "float32"}, {"name": "optimizer/vars/294", "shape": [192], "dtype": "float32"}, {"name": "optimizer/vars/295", "shape": [192], "dtype": "float32"}, {"name": "optimizer/vars/296", "shape": [1, 1, 192, 1152], "dtype": "float32"}, {"name": "optimizer/vars/297", "shape": [1, 1, 192, 1152], "dtype": "float32"}, {"name": "optimizer/vars/298", "shape": [1152], "dtype": "float32"}, {"name": "optimizer/vars/299", "shape": [1152], "dtype": "float32"}, {"name": "optimizer/vars/3", "shape": [3, 3, 3, 32], "dtype": "float32"}, {"name": "optimizer/vars/30", "shape": [128], "dtype": "float32"}, {"name": "optimizer/vars/300", "shape": [1152], "dtype": "float32"}, {"name": "optimizer/vars/301", "shape": [1152], "dtype": "float32"}, {"name": "optimizer/vars/302", "shape": [3, 3, 1152, 1], "dtype": "float32"}, {"name": "optimizer/vars/303", "shape": [3, 3, 1152, 1], "dtype": "float32"}, {"name": "optimizer/vars/304", "shape": [1152], "dtype": "float32"}, {"name": "optimizer/vars/305", "shape": [1152], "dtype": "float32"}, {"name": "optimizer/vars/306", "shape": [1152], "dtype": "float32"}, {"name": "optimizer/vars/307", "shape": [1152], "dtype": "float32"}, {"name": "optimizer/vars/308", "shape": [1, 1, 1152, 48], "dtype": "float32"}, {"name": "optimizer/vars/309", "shape": [1, 1, 1152, 48], "dtype": "float32"}, {"name": "optimizer/vars/31", "shape": [128], "dtype": "float32"}, {"name": "optimizer/vars/310", "shape": [48], "dtype": "float32"}, {"name": "optimizer/vars/311", "shape": [48], "dtype": "float32"}, {"name": "optimizer/vars/312", "shape": [1, 1, 48, 1152], "dtype": "float32"}, {"name": "optimizer/vars/313", "shape": [1, 1, 48, 1152], "dtype": "float32"}, {"name": "optimizer/vars/314", "shape": [1152], "dtype": "float32"}, {"name": "optimizer/vars/315", "shape": [1152], "dtype": "float32"}, {"name": "optimizer/vars/316", "shape": [1, 1, 1152, 192], "dtype": "float32"}, {"name": "optimizer/vars/317", "shape": [1, 1, 1152, 192], "dtype": "float32"}, {"name": "optimizer/vars/318", "shape": [192], "dtype": "float32"}, {"name": "optimizer/vars/319", "shape": [192], "dtype": "float32"}, {"name": "optimizer/vars/32", "shape": [1, 1, 128, 32], "dtype": "float32"}, {"name": "optimizer/vars/320", "shape": [192], "dtype": "float32"}, {"name": "optimizer/vars/321", "shape": [192], "dtype": "float32"}, {"name": "optimizer/vars/322", "shape": [1, 1, 192, 1152], "dtype": "float32"}, {"name": "optimizer/vars/323", "shape": [1, 1, 192, 1152], "dtype": "float32"}, {"name": "optimizer/vars/324", "shape": [1152], "dtype": "float32"}, {"name": "optimizer/vars/325", "shape": [1152], "dtype": "float32"}, {"name": "optimizer/vars/326", "shape": [1152], "dtype": "float32"}, {"name": "optimizer/vars/327", "shape": [1152], "dtype": "float32"}, {"name": "optimizer/vars/328", "shape": [3, 3, 1152, 1], "dtype": "float32"}, {"name": "optimizer/vars/329", "shape": [3, 3, 1152, 1], "dtype": "float32"}, {"name": "optimizer/vars/33", "shape": [1, 1, 128, 32], "dtype": "float32"}, {"name": "optimizer/vars/330", "shape": [1152], "dtype": "float32"}, {"name": "optimizer/vars/331", "shape": [1152], "dtype": "float32"}, {"name": "optimizer/vars/332", "shape": [1152], "dtype": "float32"}, {"name": "optimizer/vars/333", "shape": [1152], "dtype": "float32"}, {"name": "optimizer/vars/334", "shape": [1, 1, 1152, 48], "dtype": "float32"}, {"name": "optimizer/vars/335", "shape": [1, 1, 1152, 48], "dtype": "float32"}, {"name": "optimizer/vars/336", "shape": [48], "dtype": "float32"}, {"name": "optimizer/vars/337", "shape": [48], "dtype": "float32"}, {"name": "optimizer/vars/338", "shape": [1, 1, 48, 1152], "dtype": "float32"}, {"name": "optimizer/vars/339", "shape": [1, 1, 48, 1152], "dtype": "float32"}, {"name": "optimizer/vars/34", "shape": [32], "dtype": "float32"}, {"name": "optimizer/vars/340", "shape": [1152], "dtype": "float32"}, {"name": "optimizer/vars/341", "shape": [1152], "dtype": "float32"}, {"name": "optimizer/vars/342", "shape": [1, 1, 1152, 192], "dtype": "float32"}, {"name": "optimizer/vars/343", "shape": [1, 1, 1152, 192], "dtype": "float32"}, {"name": "optimizer/vars/344", "shape": [192], "dtype": "float32"}, {"name": "optimizer/vars/345", "shape": [192], "dtype": "float32"}, {"name": "optimizer/vars/346", "shape": [192], "dtype": "float32"}, {"name": "optimizer/vars/347", "shape": [192], "dtype": "float32"}, {"name": "optimizer/vars/348", "shape": [1, 1, 192, 1152], "dtype": "float32"}, {"name": "optimizer/vars/349", "shape": [1, 1, 192, 1152], "dtype": "float32"}, {"name": "optimizer/vars/35", "shape": [32], "dtype": "float32"}, {"name": "optimizer/vars/350", "shape": [1152], "dtype": "float32"}, {"name": "optimizer/vars/351", "shape": [1152], "dtype": "float32"}, {"name": "optimizer/vars/352", "shape": [1152], "dtype": "float32"}, {"name": "optimizer/vars/353", "shape": [1152], "dtype": "float32"}, {"name": "optimizer/vars/354", "shape": [3, 3, 1152, 1], "dtype": "float32"}, {"name": "optimizer/vars/355", "shape": [3, 3, 1152, 1], "dtype": "float32"}, {"name": "optimizer/vars/356", "shape": [1152], "dtype": "float32"}, {"name": "optimizer/vars/357", "shape": [1152], "dtype": "float32"}, {"name": "optimizer/vars/358", "shape": [1152], "dtype": "float32"}, {"name": "optimizer/vars/359", "shape": [1152], "dtype": "float32"}, {"name": "optimizer/vars/36", "shape": [32], "dtype": "float32"}, {"name": "optimizer/vars/360", "shape": [1, 1, 1152, 48], "dtype": "float32"}, {"name": "optimizer/vars/361", "shape": [1, 1, 1152, 48], "dtype": "float32"}, {"name": "optimizer/vars/362", "shape": [48], "dtype": "float32"}, {"name": "optimizer/vars/363", "shape": [48], "dtype": "float32"}, {"name": "optimizer/vars/364", "shape": [1, 1, 48, 1152], "dtype": "float32"}, {"name": "optimizer/vars/365", "shape": [1, 1, 48, 1152], "dtype": "float32"}, {"name": "optimizer/vars/366", "shape": [1152], "dtype": "float32"}, {"name": "optimizer/vars/367", "shape": [1152], "dtype": "float32"}, {"name": "optimizer/vars/368", "shape": [1, 1, 1152, 192], "dtype": "float32"}, {"name": "optimizer/vars/369", "shape": [1, 1, 1152, 192], "dtype": "float32"}, {"name": "optimizer/vars/37", "shape": [32], "dtype": "float32"}, {"name": "optimizer/vars/370", "shape": [192], "dtype": "float32"}, {"name": "optimizer/vars/371", "shape": [192], "dtype": "float32"}, {"name": "optimizer/vars/372", "shape": [192], "dtype": "float32"}, {"name": "optimizer/vars/373", "shape": [192], "dtype": "float32"}, {"name": "optimizer/vars/374", "shape": [1, 1, 192, 1152], "dtype": "float32"}, {"name": "optimizer/vars/375", "shape": [1, 1, 192, 1152], "dtype": "float32"}, {"name": "optimizer/vars/376", "shape": [1152], "dtype": "float32"}, {"name": "optimizer/vars/377", "shape": [1152], "dtype": "float32"}, {"name": "optimizer/vars/378", "shape": [1152], "dtype": "float32"}, {"name": "optimizer/vars/379", "shape": [1152], "dtype": "float32"}, {"name": "optimizer/vars/38", "shape": [3, 3, 32, 128], "dtype": "float32"}, {"name": "optimizer/vars/380", "shape": [3, 3, 1152, 1], "dtype": "float32"}, {"name": "optimizer/vars/381", "shape": [3, 3, 1152, 1], "dtype": "float32"}, {"name": "optimizer/vars/382", "shape": [1152], "dtype": "float32"}, {"name": "optimizer/vars/383", "shape": [1152], "dtype": "float32"}, {"name": "optimizer/vars/384", "shape": [1152], "dtype": "float32"}, {"name": "optimizer/vars/385", "shape": [1152], "dtype": "float32"}, {"name": "optimizer/vars/386", "shape": [1, 1, 1152, 48], "dtype": "float32"}, {"name": "optimizer/vars/387", "shape": [1, 1, 1152, 48], "dtype": "float32"}, {"name": "optimizer/vars/388", "shape": [48], "dtype": "float32"}, {"name": "optimizer/vars/389", "shape": [48], "dtype": "float32"}, {"name": "optimizer/vars/39", "shape": [3, 3, 32, 128], "dtype": "float32"}, {"name": "optimizer/vars/390", "shape": [1, 1, 48, 1152], "dtype": "float32"}, {"name": "optimizer/vars/391", "shape": [1, 1, 48, 1152], "dtype": "float32"}, {"name": "optimizer/vars/392", "shape": [1152], "dtype": "float32"}, {"name": "optimizer/vars/393", "shape": [1152], "dtype": "float32"}, {"name": "optimizer/vars/394", "shape": [1, 1, 1152, 192], "dtype": "float32"}, {"name": "optimizer/vars/395", "shape": [1, 1, 1152, 192], "dtype": "float32"}, {"name": "optimizer/vars/396", "shape": [192], "dtype": "float32"}, {"name": "optimizer/vars/397", "shape": [192], "dtype": "float32"}, {"name": "optimizer/vars/398", "shape": [192], "dtype": "float32"}, {"name": "optimizer/vars/399", "shape": [192], "dtype": "float32"}, {"name": "optimizer/vars/4", "shape": [32], "dtype": "float32"}, {"name": "optimizer/vars/40", "shape": [128], "dtype": "float32"}, {"name": "optimizer/vars/400", "shape": [1, 1, 192, 1152], "dtype": "float32"}, {"name": "optimizer/vars/401", "shape": [1, 1, 192, 1152], "dtype": "float32"}, {"name": "optimizer/vars/402", "shape": [1152], "dtype": "float32"}, {"name": "optimizer/vars/403", "shape": [1152], "dtype": "float32"}, {"name": "optimizer/vars/404", "shape": [1152], "dtype": "float32"}, {"name": "optimizer/vars/405", "shape": [1152], "dtype": "float32"}, {"name": "optimizer/vars/406", "shape": [3, 3, 1152, 1], "dtype": "float32"}, {"name": "optimizer/vars/407", "shape": [3, 3, 1152, 1], "dtype": "float32"}, {"name": "optimizer/vars/408", "shape": [1152], "dtype": "float32"}, {"name": "optimizer/vars/409", "shape": [1152], "dtype": "float32"}, {"name": "optimizer/vars/41", "shape": [128], "dtype": "float32"}, {"name": "optimizer/vars/410", "shape": [1152], "dtype": "float32"}, {"name": "optimizer/vars/411", "shape": [1152], "dtype": "float32"}, {"name": "optimizer/vars/412", "shape": [1, 1, 1152, 48], "dtype": "float32"}, {"name": "optimizer/vars/413", "shape": [1, 1, 1152, 48], "dtype": "float32"}, {"name": "optimizer/vars/414", "shape": [48], "dtype": "float32"}, {"name": "optimizer/vars/415", "shape": [48], "dtype": "float32"}, {"name": "optimizer/vars/416", "shape": [1, 1, 48, 1152], "dtype": "float32"}, {"name": "optimizer/vars/417", "shape": [1, 1, 48, 1152], "dtype": "float32"}, {"name": "optimizer/vars/418", "shape": [1152], "dtype": "float32"}, {"name": "optimizer/vars/419", "shape": [1152], "dtype": "float32"}, {"name": "optimizer/vars/42", "shape": [128], "dtype": "float32"}, {"name": "optimizer/vars/420", "shape": [1, 1, 1152, 192], "dtype": "float32"}, {"name": "optimizer/vars/421", "shape": [1, 1, 1152, 192], "dtype": "float32"}, {"name": "optimizer/vars/422", "shape": [192], "dtype": "float32"}, {"name": "optimizer/vars/423", "shape": [192], "dtype": "float32"}, {"name": "optimizer/vars/424", "shape": [192], "dtype": "float32"}, {"name": "optimizer/vars/425", "shape": [192], "dtype": "float32"}, {"name": "optimizer/vars/426", "shape": [1, 1, 192, 1152], "dtype": "float32"}, {"name": "optimizer/vars/427", "shape": [1, 1, 192, 1152], "dtype": "float32"}, {"name": "optimizer/vars/428", "shape": [1152], "dtype": "float32"}, {"name": "optimizer/vars/429", "shape": [1152], "dtype": "float32"}, {"name": "optimizer/vars/43", "shape": [128], "dtype": "float32"}, {"name": "optimizer/vars/430", "shape": [1152], "dtype": "float32"}, {"name": "optimizer/vars/431", "shape": [1152], "dtype": "float32"}, {"name": "optimizer/vars/432", "shape": [3, 3, 1152, 1], "dtype": "float32"}, {"name": "optimizer/vars/433", "shape": [3, 3, 1152, 1], "dtype": "float32"}, {"name": "optimizer/vars/434", "shape": [1152], "dtype": "float32"}, {"name": "optimizer/vars/435", "shape": [1152], "dtype": "float32"}, {"name": "optimizer/vars/436", "shape": [1152], "dtype": "float32"}, {"name": "optimizer/vars/437", "shape": [1152], "dtype": "float32"}, {"name": "optimizer/vars/438", "shape": [1, 1, 1152, 48], "dtype": "float32"}, {"name": "optimizer/vars/439", "shape": [1, 1, 1152, 48], "dtype": "float32"}, {"name": "optimizer/vars/44", "shape": [1, 1, 128, 48], "dtype": "float32"}, {"name": "optimizer/vars/440", "shape": [48], "dtype": "float32"}, {"name": "optimizer/vars/441", "shape": [48], "dtype": "float32"}, {"name": "optimizer/vars/442", "shape": [1, 1, 48, 1152], "dtype": "float32"}, {"name": "optimizer/vars/443", "shape": [1, 1, 48, 1152], "dtype": "float32"}, {"name": "optimizer/vars/444", "shape": [1152], "dtype": "float32"}, {"name": "optimizer/vars/445", "shape": [1152], "dtype": "float32"}, {"name": "optimizer/vars/446", "shape": [1, 1, 1152, 192], "dtype": "float32"}, {"name": "optimizer/vars/447", "shape": [1, 1, 1152, 192], "dtype": "float32"}, {"name": "optimizer/vars/448", "shape": [192], "dtype": "float32"}, {"name": "optimizer/vars/449", "shape": [192], "dtype": "float32"}, {"name": "optimizer/vars/45", "shape": [1, 1, 128, 48], "dtype": "float32"}, {"name": "optimizer/vars/450", "shape": [192], "dtype": "float32"}, {"name": "optimizer/vars/451", "shape": [192], "dtype": "float32"}, {"name": "optimizer/vars/452", "shape": [1, 1, 192, 1152], "dtype": "float32"}, {"name": "optimizer/vars/453", "shape": [1, 1, 192, 1152], "dtype": "float32"}, {"name": "optimizer/vars/454", "shape": [1152], "dtype": "float32"}, {"name": "optimizer/vars/455", "shape": [1152], "dtype": "float32"}, {"name": "optimizer/vars/456", "shape": [1152], "dtype": "float32"}, {"name": "optimizer/vars/457", "shape": [1152], "dtype": "float32"}, {"name": "optimizer/vars/458", "shape": [3, 3, 1152, 1], "dtype": "float32"}, {"name": "optimizer/vars/459", "shape": [3, 3, 1152, 1], "dtype": "float32"}, {"name": "optimizer/vars/46", "shape": [48], "dtype": "float32"}, {"name": "optimizer/vars/460", "shape": [1152], "dtype": "float32"}, {"name": "optimizer/vars/461", "shape": [1152], "dtype": "float32"}, {"name": "optimizer/vars/462", "shape": [1152], "dtype": "float32"}, {"name": "optimizer/vars/463", "shape": [1152], "dtype": "float32"}, {"name": "optimizer/vars/464", "shape": [1, 1, 1152, 48], "dtype": "float32"}, {"name": "optimizer/vars/465", "shape": [1, 1, 1152, 48], "dtype": "float32"}, {"name": "optimizer/vars/466", "shape": [48], "dtype": "float32"}, {"name": "optimizer/vars/467", "shape": [48], "dtype": "float32"}, {"name": "optimizer/vars/468", "shape": [1, 1, 48, 1152], "dtype": "float32"}, {"name": "optimizer/vars/469", "shape": [1, 1, 48, 1152], "dtype": "float32"}, {"name": "optimizer/vars/47", "shape": [48], "dtype": "float32"}, {"name": "optimizer/vars/470", "shape": [1152], "dtype": "float32"}, {"name": "optimizer/vars/471", "shape": [1152], "dtype": "float32"}, {"name": "optimizer/vars/472", "shape": [1, 1, 1152, 192], "dtype": "float32"}, {"name": "optimizer/vars/473", "shape": [1, 1, 1152, 192], "dtype": "float32"}, {"name": "optimizer/vars/474", "shape": [192], "dtype": "float32"}, {"name": "optimizer/vars/475", "shape": [192], "dtype": "float32"}, {"name": "optimizer/vars/476", "shape": [192], "dtype": "float32"}, {"name": "optimizer/vars/477", "shape": [192], "dtype": "float32"}, {"name": "optimizer/vars/478", "shape": [1, 1, 192, 1280], "dtype": "float32"}, {"name": "optimizer/vars/479", "shape": [1, 1, 192, 1280], "dtype": "float32"}, {"name": "optimizer/vars/48", "shape": [48], "dtype": "float32"}, {"name": "optimizer/vars/480", "shape": [1280], "dtype": "float32"}, {"name": "optimizer/vars/481", "shape": [1280], "dtype": "float32"}, {"name": "optimizer/vars/482", "shape": [1280], "dtype": "float32"}, {"name": "optimizer/vars/483", "shape": [1280], "dtype": "float32"}, {"name": "optimizer/vars/484", "shape": [1280, 1], "dtype": "float32"}, {"name": "optimizer/vars/485", "shape": [1280, 1], "dtype": "float32"}, {"name": "optimizer/vars/486", "shape": [1], "dtype": "float32"}, {"name": "optimizer/vars/487", "shape": [1], "dtype": "float32"}, {"name": "optimizer/vars/49", "shape": [48], "dtype": "float32"}, {"name": "optimizer/vars/5", "shape": [32], "dtype": "float32"}, {"name": "optimizer/vars/50", "shape": [3, 3, 48, 192], "dtype": "float32"}, {"name": "optimizer/vars/51", "shape": [3, 3, 48, 192], "dtype": "float32"}, {"name": "optimizer/vars/52", "shape": [192], "dtype": "float32"}, {"name": "optimizer/vars/53", "shape": [192], "dtype": "float32"}, {"name": "optimizer/vars/54", "shape": [192], "dtype": "float32"}, {"name": "optimizer/vars/55", "shape": [192], "dtype": "float32"}, {"name": "optimizer/vars/56", "shape": [1, 1, 192, 48], "dtype": "float32"}, {"name": "optimizer/vars/57", "shape": [1, 1, 192, 48], "dtype": "float32"}, {"name": "optimizer/vars/58", "shape": [48], "dtype": "float32"}, {"name": "optimizer/vars/59", "shape": [48], "dtype": "float32"}, {"name": "optimizer/vars/6", "shape": [32], "dtype": "float32"}, {"name": "optimizer/vars/60", "shape": [48], "dtype": "float32"}, {"name": "optimizer/vars/61", "shape": [48], "dtype": "float32"}, {"name": "optimizer/vars/62", "shape": [1, 1, 48, 192], "dtype": "float32"}, {"name": "optimizer/vars/63", "shape": [1, 1, 48, 192], "dtype": "float32"}, {"name": "optimizer/vars/64", "shape": [192], "dtype": "float32"}, {"name": "optimizer/vars/65", "shape": [192], "dtype": "float32"}, {"name": "optimizer/vars/66", "shape": [192], "dtype": "float32"}, {"name": "optimizer/vars/67", "shape": [192], "dtype": "float32"}, {"name": "optimizer/vars/68", "shape": [3, 3, 192, 1], "dtype": "float32"}, {"name": "optimizer/vars/69", "shape": [3, 3, 192, 1], "dtype": "float32"}, {"name": "optimizer/vars/7", "shape": [32], "dtype": "float32"}, {"name": "optimizer/vars/70", "shape": [192], "dtype": "float32"}, {"name": "optimizer/vars/71", "shape": [192], "dtype": "float32"}, {"name": "optimizer/vars/72", "shape": [192], "dtype": "float32"}, {"name": "optimizer/vars/73", "shape": [192], "dtype": "float32"}, {"name": "optimizer/vars/74", "shape": [1, 1, 192, 12], "dtype": "float32"}, {"name": "optimizer/vars/75", "shape": [1, 1, 192, 12], "dtype": "float32"}, {"name": "optimizer/vars/76", "shape": [12], "dtype": "float32"}, {"name": "optimizer/vars/77", "shape": [12], "dtype": "float32"}, {"name": "optimizer/vars/78", "shape": [1, 1, 12, 192], "dtype": "float32"}, {"name": "optimizer/vars/79", "shape": [1, 1, 12, 192], "dtype": "float32"}, {"name": "optimizer/vars/8", "shape": [3, 3, 32, 16], "dtype": "float32"}, {"name": "optimizer/vars/80", "shape": [192], "dtype": "float32"}, {"name": "optimizer/vars/81", "shape": [192], "dtype": "float32"}, {"name": "optimizer/vars/82", "shape": [1, 1, 192, 96], "dtype": "float32"}, {"name": "optimizer/vars/83", "shape": [1, 1, 192, 96], "dtype": "float32"}, {"name": "optimizer/vars/84", "shape": [96], "dtype": "float32"}, {"name": "optimizer/vars/85", "shape": [96], "dtype": "float32"}, {"name": "optimizer/vars/86", "shape": [96], "dtype": "float32"}, {"name": "optimizer/vars/87", "shape": [96], "dtype": "float32"}, {"name": "optimizer/vars/88", "shape": [1, 1, 96, 384], "dtype": "float32"}, {"name": "optimizer/vars/89", "shape": [1, 1, 96, 384], "dtype": "float32"}, {"name": "optimizer/vars/9", "shape": [3, 3, 32, 16], "dtype": "float32"}, {"name": "optimizer/vars/90", "shape": [384], "dtype": "float32"}, {"name": "optimizer/vars/91", "shape": [384], "dtype": "float32"}, {"name": "optimizer/vars/92", "shape": [384], "dtype": "float32"}, {"name": "optimizer/vars/93", "shape": [384], "dtype": "float32"}, {"name": "optimizer/vars/94", "shape": [3, 3, 384, 1], "dtype": "float32"}, {"name": "optimizer/vars/95", "shape": [3, 3, 384, 1], "dtype": "float32"}, {"name": "optimizer/vars/96", "shape": [384], "dtype": "float32"}, {"name": "optimizer/vars/97", "shape": [384], "dtype": "float32"}, {"name": "optimizer/vars/98", "shape": [384], "dtype": "float32"}, {"name": "optimizer/vars/99", "shape": [384], "dtype": "float32"}]}]}
